model_app.pth (torch, 98589 bytes, 15 tensors)

model.0.weight f4 [128, 91]
00000000: eab4 083f 2407 d4bb 3516 b3bc b5a4 69bb
00000010: 661d 62bc bfb5 3f3c 6d26 a6bb f9fd 02bc
00000020: abd9 f73c 4541 4b3c a805 213c 95f5 8f3e
00000030: d35c 04bf 9188 b43b e3d5 0dbc 2296 68bd
00000040: 8ef8 82bb 617a 703c 0703 6fbb 468b 92bc
00000050: ed3b c93c 260b 65b9 b994 6f3b 336d a33c
00000060: 9d3f 3c3d a0b9 91bb 901f 54bb eb56 b03c
00000070: d51d 193c 33c3 0e3c e939 a0bd 6ec1 93bd
00000080: 4c96 853c 56da d93b a1d8 dc39 8c26 ffbb
00000090: 59c4 21bb 2728 a63b b0ee ae3b 869e 47bd
000000a0: 3cd0 91bd 8ab7 b73c 690a 1e3d 5ced bc3d
000000b0: b0cd 9fbd 5124 b93c 0618 de3c 380c ef3c
000000c0: 3fec 553d e312 523d 4718 af37 a645 263d
000000d0: 16d9 95bc 9071 133d 789c e83c ded6 b43c
000000e0: 235f be3c a7cf f33c dc0e 283d 0cf3 0e3d
000000f0: 72e8 02bc 2dbc 063d 0314 213d 7405 243d
00000100: 8dd9 2fbd 5b3b 653c 1e28 373d 35f3 613d
00000110: 2a80 f3bc 74e1 4ebc 687c 703d a681 06bd
00000120: 10cc 203d 3fd7 993d 531d 373d 3af8 a339
00000130: f061 d23c e104 713d ea60 883c d2a1 fbbc
00000140: b56a 35bd 4813 753c 72aa 8b3d db11 cf3c
00000150: 7c78 443d 7eae 76bd 085b 1b3d 4673 81bd
00000160: b68b d33a dd4c 1cbb 0cf8 b33a 8388 bd3e
00000170: 43fc fb3c 7be1 c4bd 1e43 4e3b 22d9 373b
00000180: 654a 70bc b25e 3d3c 1192 a4bc e8c1 973c
00000190: 48ac d2bc 7ec2 443d 9200 aa3e f784 25bf
000001a0: 56fd 8f3b 5b6d 853c 2023 8ebd 8953 b13c
000001b0: 2d35 f3bd 14e6 e83c 738a 903d d2c0 b2bc
000001c0: fc9c 2d3a 7f3e 6c3c 79f6 b0bc 0e88 85bc
000001d0: 225a 033c eddd 4f3c fccd 8d3b 1124 8bbb
000001e0: d2d7 453a 8ebf e9bc 6650 753c 972b 33bc
000001f0: a560 1f3c 7bb0 65bb b611 1dbc e2b4 8d3c
00000200: a099 623b 4032 e33b 15f9 893b 3f46 283b
00000210: 50b0 33bb 1cb2 c73b eb50 633d 7f6f f93c
00000220: a72b 733c cd76 443c 3ec9 d03c fe24 1b3d
00000230: 458b 203c 19cb 07bd 62c1 83bc bc5e 39bd
00000240: 6b6d 023d 5ee3 8a3c 25bc d43c 584e ac3c
00000250: e2e7 093d 1841 ca3c 9d42 213d f9c4 97bc
00000260: c752 c53c 6a60 1a3d 5798 753c e76f bdbc
00000270: 896b b0bb a6fa 4a3c 7525 c43a d771 743d
00000280: 2685 293d 1771 393d dddf a83b df48 ee3c
00000290: f67b 213d 93d6 2d3d e4e1 983c 47ca d43c
000002a0: 9cd2 723d af90 883c a07b 383c 4009 873c
000002b0: 6c08 473c b147 6e3d aed8 1b3d b0a7 a63c
000002c0: cced 6f3d 06f0 153c 5d43 0d3d 7dd7 b03c
000002d0: 0122 6c3c f0e6 c73c 1fb3 ad3e e500 dcbc
000002e0: 682e f73c 81e2 bfbc af96 c5bc e0f0 8235
000002f0: a984 85bd 834d 61bb 8068 653d ec34 c9ba
00000300: 29c3 ea3c bf24 18bb 3f4c 46bf 2683 2839
00000310: e02f b93c 70ec eabb cb48 953c fb40 54bd
00000320: 4bce 03bd 8f33 2ebd f78a ef3c 6e71 8ebd
00000330: cf0d 023e 2cc7 363d efff 0fbd 1373 04bc
00000340: 6b2d e8bc 9222 513c cc32 ed3c b720 51be
00000350: d7be dc3c 8a92 ccbc 9542 f13c 4a37 caba
00000360: 2e67 963c 1fb6 8a3c 8e2f 433b 12e3 cb3c
00000370: f5ff 9d3b 632b b43c f88e 063c 1fd1 953c
00000380: 62f0 f6bb 85df 363d 9fd2 1b3d 40d8 763d
00000390: ed4b b4bc 13ff 863c 7d18 c73b 99c7 103d
000003a0: 0e76 3b3c 27de cf3d ca98 853d 248a 813c
000003b0: 5cb5 e13c b48c 92bc fb0c 09bd b5cf ba3c
000003c0: 20b3 0f3d 74be 7dbc 4d40 65bc ac9f 40be
000003d0: 29b8 af3c 5200 e7ba 94c3 9cbd 67b8 813c
000003e0: c7ed c93c 0b68 ef3c 2fd4 6cbe 30c6 983d
000003f0: 1ca1 b13c 8dee 4e3d bb4e be3a 50d0 3a3c
0.5340105 -0.006470578 -0.021861175 -0.0035651152 -0.013800954 0.0117010465 -0.0050704987 -0.007995122
0.03025516 0.012405698 0.009828009 0.28117052 -0.5170414 0.005509444 -0.008656952 -0.056783803
-0.003996915 0.014677615 -0.003647031 -0.017888676 0.024564708 -0.00021843295 0.0036557151 0.019949531
0.045959104 -0.004447177 -0.0032367446 0.02152582 0.009345491 0.008713531 -0.078235455 -0.07214628
0.016307019 0.006648342 0.0004212307 -0.0077865776 -0.0024683683 0.0050707045 0.0053385124 -0.048735164
-0.07119796 0.022426385 0.038584147 0.0922496 -0.07802904 0.022600325 0.027111065 0.029180631
0.052227255 0.051287543 2.087293e-05 0.040593766 -0.018291991 0.035996974 0.028394923 0.022075113
0.023238724 0.029762102 0.041029796 0.034899756 -0.00798999 0.032894302 0.039325725 0.040044263
-0.042932082 0.013991202 0.044715993 0.05516358 -0.0297242 -0.012626994 0.058712393 -0.032838486
0.03925711 0.07511758 0.0447057 0.00031274726 0.025681466 0.058842544 0.016647775 -0.03071681
-0.044291217 0.01495821 0.06819619 0.025277069 0.047966465 -0.060225002 0.03792861 -0.06320815
0.001613966 -0.0023849525 0.001373054 0.37018213 0.030759936 -0.096133195 0.003147311 0.0028053005
-0.014666175 0.011558222 -0.020089181 0.018525079 -0.025716916 0.048037045 0.3320356 -0.64656013
0.0043942137 0.016287496 -0.06940293 0.021646278 -0.11875377 0.028430022 0.07057657 -0.02182046
0.0006622819 0.014419197 -0.021601902 -0.016300227 0.008017095 0.012687189 0.0043275338 -0.004246243
0.00075471133 -0.028533723 0.014972782 -0.010935686 0.009727632 -0.0035047818 -0.009586742 0.017298166
0.003457643 0.0069334805 0.004210601 0.0025676636 -0.0027418323 0.0060942303 0.05549709 0.030448673
0.0148419505 0.011991215 0.025486585 0.037877075 0.009798829 -0.033152673 -0.016083423 -0.04525636
0.03184263 0.01695412 0.02596862 0.021033451 0.033668406 0.024689242 0.039370168 -0.018526541
0.024087323 0.037689604 0.014989934 -0.023124648 -0.005383913 0.012388861 0.0014964776 0.05967888
0.041386746 0.045273867 0.0051536397 0.029087482 0.03942486 0.042440962 0.0186624 0.02597536
0.059282884 0.016670553 0.011259943 0.016483903 0.012148004 0.05817384 0.03804844 0.020343632
0.05857639 0.009151464 0.03448807 0.021587128 0.014412404 0.024402112 0.3392572 -0.026855895
0.030173495 -0.023423435 -0.024119703 9.755859e-07 -0.065194435 -0.0034378476 0.056007862 -0.0015350855
0.028657513 -0.0023215262 -0.7746009 0.00016070585 0.022605836 -0.007169299 0.018223187 -0.051819783
-0.03217916 -0.04252964 0.029241068 -0.06955229 0.1270058 0.04462354 -0.035156187 -0.008084076
-0.02834197 0.01276459 0.028954886 -0.20422636 0.026946468 -0.024972219 0.029450694 -0.0015427854
0.018359747 0.016932545 0.0029782983 0.024888549 0.004821772 0.021993345 0.008212797 0.018288193
-0.00753598 0.04464676 0.03804266 0.060264826 -0.02200886 0.01647905 0.0060759173 0.0353466
0.011441721 0.10149794 0.06523283 0.01581294 0.0275523 -0.017889358 -0.033459645 0.02280412
0.035082936 -0.015487302 -0.013992381 -0.1881091 0.02145012 -0.0017623997 -0.07654491 0.015835
0.024649514 0.029224416 -0.23127817 0.07459676 0.021683268 0.05052047 0.0014519313 0.011402205

model.0.bias f4 [128]
00000000: 01de 973d e99b bb3d cc23 c6bd edb0 03bd
00000010: 9d22 7f3d 86ea ff3c eaac ac3d 2dee 1dbd
00000020: 6776 2d3d 830d e73b d0f3 713c abf1 c23d
00000030: 432b b8bd c9ca c43d dd8e 3b3d e1d1 d3bd
00000040: 7216 bf3d 0d79 c63c 5598 a9bd 6a44 513b
00000050: 75d2 84bd 9944 c23d 8898 91bc b9e5 c9bc
00000060: 6823 9f3c a9fb 9ebd 7a0b 823d cf08 683d
00000070: b272 3e3d 3095 b8bd af06 1c3d 2baa a83d
00000080: 3356 9abd 613d 15bd f4d5 123e cd22 39bb
00000090: aa24 c0bd 0d2e 7dbc 86ef 793c 6d16 933c
000000a0: b385 c63d d897 13bd f92c 86bd 868c 2739
000000b0: d720 633c 859d 89bd fd71 e03c b532 2ebd
000000c0: aa19 3cbc 857a b53d 1026 66bd 4493 1fbd
000000d0: b67c ae3c 3167 f4bc 50a8 cf3d 4ca8 153b
000000e0: 2937 793d a6b2 a13c e877 9fbd 458f b73d
000000f0: c8fa 70bd 83fe 253d 88f7 a03d 6a13 6e3d
00000100: caf1 04bc 9919 c43c 7fbc 913d 57c0 d3bd
00000110: cdf8 be3c 40f2 803d dd87 e83c 6ca3 1b3d
00000120: dd0e a5bd 5396 0e3b c286 cebd 7e8c 0ebd
00000130: 5682 1bbd f029 d2bd 62a5 1fbd 3f93 693d
00000140: 31aa 4bbd b208 c73d 63b1 30bd 2cdc 33bd
00000150: 8d64 963d d5c7 1dbd d9ca b73c 459e a7bc
00000160: 19c1 25bc 5d78 073d f30c c5ba f7fc bd3d
00000170: 0899 8f3d 59d5 c23d cd89 95bd fc54 a53c
00000180: 5185 40bd 62e3 a4bd 1667 713d 74ba db3c
00000190: f73b 593d ea62 a7bc 9e22 143d 5961 acbd
000001a0: 94b0 d0bd b8f1 aa3d de7a b6bd e6aa 4cbd
000001b0: bb7b ac3d fb1a cd3d 76da 283c 1742 d2bb
000001c0: 6406 333d f8ac 8cbd d3ce 55bd 9a2b f13c
000001d0: f0bc 71bd d1b5 36bd e491 48bd 7696 893d
000001e0: 7191 bfbd d0a8 ff3c 40ef f03b 1ef5 883d
000001f0: 2664 263d e10c 89bd 1607 0f3d 47fc af3d
0.07415391 0.09160597 -0.096747965 -0.03215115 0.06228887 0.03123976 0.08431418 -0.03855722
0.042349245 0.0070511713 0.014767602 0.09518751 -0.089926265 0.09608991 0.045790542 -0.103427656
0.09330453 0.024227643 -0.08281008 0.0031931647 -0.06485454 0.0948574 -0.017772928 -0.024645673
0.019426063 -0.07762844 0.06349845 0.056649026 0.0464961 -0.0901283 0.03809231 0.08235582
-0.075359724 -0.03643549 0.14339429 -0.0028249503 -0.09381993 -0.015452874 0.015254861 0.01795503
0.0969347 -0.03603348 -0.065515466 0.0001597871 0.01386281 -0.067194976 0.027398104 -0.042528827
-0.011480728 0.08861259 -0.056188643 -0.038958803 0.021299701 -0.029834362 0.10139525 0.0022835908
0.06084362 0.019738507 -0.07786542 0.08962873 -0.058832914 0.040525924 0.07859713 0.058123983
-0.008114288 0.023937987 0.07116031 -0.1033942 0.023311997 0.062962055 0.028385097 0.037997648
-0.080594756 0.002175708 -0.10084297 -0.034801953 -0.037966095 -0.10261905 -0.03897608 0.05702519
-0.049722854 0.097184554 -0.04313792 -0.043911144 0.07343397 -0.038520653 0.022435592 -0.020461211
-0.010116839 0.03307377 -0.0015033766 0.09276765 0.0701161 0.09513349 -0.07301674 0.020182125
-0.04700214 -0.08051182 0.0589362 0.026822306 0.053035703 -0.020432908 0.036165826 -0.08417005
-0.101899296 0.083468854 -0.08910154 -0.04996767 0.08422037 0.10014912 0.010305991 -0.00641657
0.043707266 -0.06868929 -0.052199196 0.029439736 -0.059018075 -0.044606987 -0.048967257 0.06718151
-0.093539126 0.031208426 0.0073527396 0.066873774 0.040622853 -0.066919096 0.034918867 0.0859304

model.1.weight f4 [128]
00000000: 549c 7d3f 9fa0 7f3f 8c86 473f 39f0 8b3f
00000010: e43b 7c3f e26a 383f 0446 583f 6f14 7b3f
00000020: 4d78 633f ad2f 3c3f 63de 3a3f e23d 5c3f
00000030: 0fa0 543f 3e76 493f de74 463f 9575 363f
00000040: 07b1 673f 232d 553f ab89 793f fe60 6f3f
00000050: c097 3e3f 6879 6c3f a670 463f 13a8 6e3f
00000060: be94 713f 85c3 363f 98ec 7d3f 1839 7a3f
00000070: df4e 733f f080 803f 255c 853f eeb8 7d3f
00000080: 8446 553f ef49 6e3f e39a 8f3f 9041 3b3f
00000090: c495 4e3f 4437 503f 0fdd 793f ec60 203f
000000a0: 499c 423f 3d6d 3e3f 60a8 643f 5a02 963f
000000b0: 342c 8f3f 1303 463f 73bc 833f 7db1 813f
000000c0: e5b0 563f f4e1 8b3f 85ef 6d3f 9121 853f
000000d0: 08ba 8b3f 7c47 583f 0287 3d3f 5176 463f
000000e0: d457 a13f b686 323f 7fb6 6b3f 2b96 853f
000000f0: a718 5f3f b2c7 5f3f 60ac 3a3f 6c1c 353f
00000100: e951 483f c124 3f3f c9a8 723f f10e 563f
00000110: 8075 773f cd27 3a3f 0814 583f 9b13 3b3f
00000120: 6f95 7a3f 7926 603f 3866 6a3f d3f8 723f
00000130: bd5e 833f c2c6 3b3f 490d 563f da6b 2b3f
00000140: 2031 423f 5e25 713f bac8 a33f 7e9e 733f
00000150: d289 2e3f 0106 643f 48fd 693f d532 5e3f
00000160: eb0a 4d3f 5a71 723f 580b 603f 570a 893f
00000170: 4bff 7c3f 2b77 5f3f aa53 463f ed17 933f
00000180: 22db 833f 682f 323f a3e5 863f f840 4f3f
00000190: c8ab 5d3f 54d8 853f dd6d 7c3f 5593 4a3f
000001a0: 2c76 663f e882 763f acda 573f cf56 8b3f
000001b0: dbfe 523f 4394 6a3f b935 5d3f 597a 5d3f
000001c0: 5cb4 4d3f 094e 593f 3bd9 5a3f ce5f 763f
000001d0: 1da0 6a3f bd87 8a3f bad9 863f 2560 a13f
000001e0: 8d6e 7b3f f0e6 443f 4194 313f b76e 643f
000001f0: 0120 2f3f 83e4 913f f019 6f3f a452 553f
0.9906666 0.99854463 0.7793968 1.0932685 0.98528886 0.7203809 0.84481835 0.98078054
0.8885544 0.7351025 0.72995585 0.86031926 0.8305673 0.7869605 0.77522075 0.71273166
0.905045 0.83272 0.9747569 0.93507373 0.744503 0.9237275 0.7751564 0.9322521
0.9436759 0.7139209 0.9918914 0.9774337 0.9504222 1.0039349 1.0418745 0.99110305
0.83310723 0.93081564 1.1219143 0.73146915 0.80697274 0.8133433 0.97602934 0.6264789
0.7601972 0.74385434 0.8931942 1.1719468 1.1185365 0.7734844 1.0291885 1.013229
0.8386367 1.092833 0.929436 1.0400869 1.0916147 0.84484076 0.7403413 0.77524287
1.2604928 0.697368 0.9207534 1.0436453 0.8714699 0.87414086 0.72919273 0.70746493
0.78249985 0.74665457 0.94788796 0.8361655 0.96663666 0.7271698 0.84405565 0.7307679
0.9788427 0.87558705 0.91562223 0.94910926 1.0263287 0.73350155 0.8361402 0.66961443
0.7585621 0.9419764 1.2795632 0.95163715 0.6817905 0.8907166 0.914021 0.86796314
0.80094784 0.9470421 0.8751731 1.070628 0.98827046 0.8729121 0.7747141 1.1491677
1.0301249 0.69603586 1.053883 0.8095851 0.8659024 1.0456643 0.9860514 0.7913106
0.90024066 0.962935 0.8431804 1.0885867 0.8242013 0.9163248 0.864101 0.8651481
0.8035333 0.848847 0.8548772 0.96239936 0.91650563 1.0822674 1.0535195 1.2607466
0.9821556 0.7691488 0.6936684 0.8923144 0.6840821 1.1397861 0.9339895 0.83329225

model.1.bias f4 [128]
00000000: b661 9d3e 4dc6 d5bd a829 93be 3050 923e
00000010: 1854 25bd 4428 90be f5b4 13bd c657 31be
00000020: 8084 0dbe d1d8 c5be c556 8fbe b47a 30bd
00000030: 4932 32be f5c5 ccbe 3de5 82be b617 b7be
00000040: 9af2 53be b05e e9bd b835 4a3d 360b 02be
00000050: d6cf 88be a0bd d0bd deab 46be 9a8a 43be
00000060: 46ad 48be 7f02 42be 957d 61be 7fe2 1abd
00000070: e293 173e 05ab dcbd daaa 8d3e 5ee0 2cbe
00000080: 3f9c 6dbe fb4e a5be 6675 cd3e 4554 6abe
00000090: 4da3 b1bd 4a97 66bd fb16 5ebd 9e15 99be
000000a0: 1431 83be 0295 98be bffd 30be 9db8 94be
000000b0: 3f82 79be a39a 95be e7cf 373e 240a 2dbe
000000c0: 0822 04be 3e36 543e b9bc 3ebe ea73 49be
000000d0: 7d13 aa3e 7beb 40be f8d0 aabe 36e1 72be
000000e0: f566 bdbe 875b 97be 1843 eebd 555d f5bd
000000f0: 7c99 a13d 562f b7bc 24fe ecbd a8fd cabe
00000100: b903 58bd 1a03 30be f61f 07be 66d0 0abe
00000110: bbbf 913c 8aa5 52be f84b 2fbe 373f 9abe
00000120: c43f 0ebe f95b e9bd d032 acbd d523 d3bd
00000130: 78cc 7bbe 5f12 5cbe 542f 99bd a27e 89be
00000140: 1f6d 6abe d4c2 dfbd 158d b9be f795 b6bc
00000150: de36 81be 5064 adbd 8c6a c8bd d3e0 57be
00000160: 1b3f cbbd 7da0 36be ec58 e5bd 339b 53be
00000170: 4049 74bd 902d eebd 1fb8 30be 00f3 b13e
00000180: c2f0 2fbe 4045 54be 8532 fc3c fe0a 4fbe
00000190: e3e4 fdbd 479d 2b3e 2bac fc3b ab57 54be
000001a0: de60 dcbd e521 dabd f16d 0dbe f636 81be
000001b0: 0308 8bbe 2b31 2bbe 7c64 65be b1c6 83be
000001c0: 0509 44be 41ab 95be fafd 18be 2641 91bd
000001d0: 6c80 12bd c489 77be 0c9c 853e b040 a4be
000001e0: ebbb 87bc 3484 7abe 01b3 6dbe 5fb8 243d
000001f0: 37ec 1abe 503e d03e 952f 6fbe 55bd ecbd
0.3073861 -0.104382135 -0.2874272 0.28576803 -0.0403634 -0.2815572 -0.036061246 -0.17318639
-0.13820076 -0.3864198 -0.27995887 -0.04308577 -0.17401995 -0.3999478 -0.2556552 -0.35760278
-0.20698014 -0.11395013 0.049367636 -0.12699589 -0.26721066 -0.10192418 -0.194015 -0.19095841
-0.19597349 -0.18946265 -0.22020562 -0.03781366 0.14802507 -0.10774807 0.27669412 -0.16882464
-0.23204134 -0.3228682 0.4012863 -0.22883709 -0.08673725 -0.056296624 -0.054221135 -0.29899305
-0.2562338 -0.29801184 -0.17284296 -0.290471 -0.24366091 -0.2921954 0.17950402 -0.168984
-0.12903607 0.20723817 -0.1862668 -0.19673124 0.33217993 -0.18839829 -0.33362556 -0.23718724
-0.36992612 -0.29562017 -0.11633891 -0.11980692 0.07890603 -0.022361439 -0.11571911 -0.3964665
-0.052737925 -0.17188683 -0.13195786 -0.1355606 0.01779162 -0.2057096 -0.17118824 -0.30126354
-0.13891512 -0.113944955 -0.08408129 -0.10309569 -0.24589717 -0.21491383 -0.0747973 -0.26854426
-0.22893189 -0.109258324 -0.3624045 -0.022288306 -0.25237173 -0.08466399 -0.09785947 -0.21081857
-0.09924146 -0.17834659 -0.11198601 -0.20664673 -0.05964017 -0.11629784 -0.17257737 0.34755707
-0.17181686 -0.20729542 0.030785808 -0.20219037 -0.12397172 0.16759215 0.0077109537 -0.20736568
-0.107606634 -0.10650996 -0.1381147 -0.25237244 -0.2715455 -0.16717975 -0.22401613 -0.25737527
-0.19144066 -0.2923222 -0.14940634 -0.07092504 -0.035767004 -0.24173647 0.26095617 -0.32080603
-0.016569098 -0.24464494 -0.23212816 0.040214892 -0.15129171 0.4067254 -0.23357995 -0.1155955

model.1.running_mean f4 [128]
00000000: 94a0 a43d 8dae c03d 67e5 b7bd bc06 f4bc
00000010: e547 8b3d e8df aa3c 3209 9b3d ed10 16bd
00000020: 6e93 233d 9347 313c 5f7e 8b3b 5014 db3d
00000030: ae17 c5bd 3e66 bf3d 3ca1 2e3d cc23 aebd
00000040: e7e3 b83d b414 be3c 3a2d 98bd b02e 0dbc
00000050: d09d 79bd 8400 c23d 2c8b 31bd ee0d 04bd
00000060: 6eaf 383c a22b 44bd cc11 733d 43ef 173d
00000070: 0093 583d 59ad a5bd ac07 3f3d 6226 733d
00000080: ea27 9bbd 72cd 22bd 9da3 0f3e 8e39 c03b
00000090: f489 afbd 06d3 35bb d4c4 c03b 52f6 ad3c
000000a0: 2dcd bb3d 9849 4abd d3bb 8fbd 153f 83bb
000000b0: 7a29 013c a973 42bd cd14 de3c 2d77 46bd
000000c0: c0c4 efbb b57d bf3d f8cf 6fbd 6666 1cbd
000000d0: 093a f93c de50 1bbd 8086 cc3d 1452 643c
000000e0: 2ebe 693d 7719 143d 8d91 abbd d43c ae3d
000000f0: 43ec 4bbd ceeb 403d c619 b93d 9390 5a3d
00000100: 16d7 d6bb c3aa f93c 702f 773d aaa1 b2bd
00000110: 4c40 cf3c 02ab 563d 70a2 ee3c 42c5 113d
00000120: 0419 cbbd d691 6b3b c950 c1bd 1953 15bd
00000130: 944c 3bbd 253c cdbd f675 e2bc f044 973d
00000140: f36b 1abd 94cc aa3d 9936 44bd b3e0 5abd
00000150: 7602 923d 7a5e 6dbd 8a61 9d3c df5c a1bc
00000160: 0746 823b ba45 a53c 5a66 9fbc 985e ad3d
00000170: 75f8 7a3d 118f ca3d 59ff 9dbd a615 8b3c
00000180: 4bcc 4bbd 8ee3 99bd 9ac4 643d a85e eb3c
00000190: beb5 3d3d d27a 10bc 9dd0 0e3d 5991 d9bd
000001a0: 0f04 d6bd 4297 a03d 1059 a0bd 520a 64bd
000001b0: f906 ad3d d27c d33d 502b 41ba d75a 4e3c
000001c0: 86f4 433d 2f28 a4bd 5a3f 61bd 47ff 0d3d
000001d0: 061b 81bd 95ee 54bd abc9 1dbd e246 873d
000001e0: 7a33 bebd 915c 2b3d 9cf0 e7ba 819d 9f3d
000001f0: 4143 543d e2a5 90bd cc76 233d 5182 a93d
0.0803844 0.09408293 -0.08979302 -0.029788367 0.06800822 0.02085872 0.07570113 -0.036637235
0.03993552 0.010820287 0.004257008 0.10697234 -0.09623657 0.09345673 0.042634234 -0.085029215
0.09027844 0.023203231 -0.07430501 -0.008617088 -0.060941517 0.094727546 -0.043345615 -0.032239847
0.011272294 -0.047893174 0.059343144 0.037093412 0.052874565 -0.08089704 0.046638176 0.059362777
-0.075759724 -0.03974671 0.14027257 0.005866236 -0.08571234 -0.0027744188 0.0058828387 0.021235619
0.091699935 -0.04938659 -0.070182465 -0.0040053227 0.007883424 -0.047473583 0.027109528 -0.0484535
-0.0073171556 0.093501486 -0.058547944 -0.038183592 0.030423181 -0.037918918 0.09986591 0.013935585
0.057066135 0.036157098 -0.08377371 0.08507696 -0.049785864 0.04709988 0.09038119 0.053360533
-0.006556402 0.030476933 0.060347974 -0.08722241 0.025299214 0.05240918 0.02913019 0.03558851
-0.09916881 0.003594508 -0.09439237 -0.0364562 -0.045727327 -0.10021237 -0.027644139 0.07386196
-0.037700605 0.083398014 -0.04790363 -0.053436946 0.07129376 -0.057951428 0.01921155 -0.019697605
0.003975633 0.02017485 -0.019457985 0.08465308 0.061272103 0.09890569 -0.07714719 0.016978096
-0.049755376 -0.07514106 0.055851556 0.028731659 0.0463159 -0.008818345 0.034866918 -0.10623426
-0.10449993 0.0784135 -0.07829487 -0.055673905 0.084485956 0.10326542 -0.000736882 0.0125949
0.047840618 -0.08015477 -0.054992057 0.03466728 -0.063039824 -0.051985342 -0.038522404 0.06605317
-0.09287162 0.041836325 -0.0017695609 0.07793713 0.05182195 -0.0706289 0.039908215 0.08276809

model.1.running_var f4 [128]
00000000: d901 d33e e717 033f 930a 2d3f 58e0 563e
00000010: 1bf0 603f 47be 8b3f dfd3 213f 3ff9 5b3f
00000020: cc82 b23f 088d 863f 2a3e 7f3f f9fd 5e3f
00000030: a7ec db3f 5183 353f 3789 453f 20a0 aa3f
00000040: eb70 983f 855a 0440 c5e6 d93e 80ec 953f
00000050: f02a e43f 7de1 af3f 735b c43f 0fc9 6a3f
00000060: 9f83 4e3f cf56 9d3f 853e 833f b74f 983f
00000070: bd73 123f e7c7 7c3f b6de fa3e dc99 783f
00000080: 3d77 ce3e 32b6 893e adf4 ef3d 10ab c03f
00000090: b799 2e3f 9a4a d23f 4878 a03f 8da8 f83f
000000a0: 161b 3a3f 2378 a13f 5503 903f e415 b43e
000000b0: f44e c83e 16e2 b23f 6a05 123f 15b5 3b3f
000000c0: 4584 ba3f 60b0 fd3e 0dd7 493f 3e41 153f
000000d0: 4bc6 0f3f 3316 a53f c486 863f 7460 823f
000000e0: f99f 913e 45de 7b3f 8c4d 703f c0de 4f3f
000000f0: 9c35 e63e d02c 243f 2346 6b3f c557 7e3f
00000100: 7b06 a43f b54a d43f 3fe6 b83f af64 3a3f
00000110: 32c1 c53e 0fbe 963f 8bf6 c33f f12d 7e3f
00000120: ce71 7f3f 8cea 973f 6f78 753f e7a6 9b3f
00000130: f8bc 203f 042f 863f bda6 7b3f c480 d93f
00000140: 01ad bb3f 86e2 533f 8786 933e da56 a63f
00000150: f4ff c43f bcf1 da3f 128e 843f 2a51 053f
00000160: 3c19 763f d8f0 753f 89bf cb3f 7ecd 0b3f
00000170: 23e3 903f 33a9 bd3f 22b4 e73f 33cb 003e
00000180: a11c 343f ffc1 8d3f 85d9 253e bbbb 3f3f
00000190: 496c d03f 8228 073f 9b73 ab3e c191 e23f
000001a0: 42b5 8a3f 2a0a cc3f 4527 cd3e 0b3e 1d3f
000001b0: 275f 9c3f 8f6d b23f a603 c53f 56d1 963f
000001c0: 0a96 2b3f ff44 993f aa22 b23f 2a1d 503f
000001d0: 6e7b 013f 415e 093f f105 0f3f b64a 8e3e
000001e0: b2dc 9a3f edf4 ae3f 0ebd dd3f 3ec2 5e3f
000001f0: dc3d 9f3f 5f39 e33d 7ac6 a63e ad2a b33f
0.41212347 0.5120835 0.6759426 0.20984018 0.8786637 1.0917443 0.63213915 0.85927194
1.3946166 1.0511789 0.9970423 0.8710628 1.7181596 0.709035 0.771625 1.3330116
1.190946 2.0680249 0.42558876 1.1712799 1.7825603 1.3740689 1.5340408 0.9171304
0.8066959 1.2292117 1.0253454 1.1899327 0.5720785 0.98742527 0.4899804 0.9710977
0.40325347 0.26896816 0.1171659 1.5052204 0.682033 1.6429017 1.2536707 1.9426438
0.7269758 1.2614788 1.1251017 0.3517295 0.39122736 1.3975246 0.5703951 0.73323184
1.4571615 0.49548626 0.78843766 0.58302677 0.56161946 1.28974 1.0509877 1.0185685
0.28442362 0.9838603 0.9386833 0.81199265 0.44962776 0.6413088 0.91903895 0.99352676
1.2814478 1.6585299 1.4445266 0.7280988 0.3862396 1.1776751 1.5309614 0.9928885
0.9978303 1.1868453 0.9588689 1.216031 0.62788343 1.0483098 0.983013 1.6992421
1.4662172 0.8276752 0.28813574 1.2995255 1.5390611 1.7105021 1.0355856 0.5207697
0.96132255 0.96070623 1.5917827 0.5461043 1.1319317 1.481726 1.8101847 0.12577514
0.70356184 1.1074828 0.16196258 0.7489583 1.6283046 0.52796185 0.33486637 1.770073
1.0836565 1.5940602 0.40069023 0.61422795 1.2216538 1.3939685 1.5391738 1.1782634
0.67025816 1.1974181 1.3916829 0.812945 0.50578964 0.53659445 0.5586844 0.27791375
1.2098601 1.3668495 1.732332 0.8701514 1.2440753 0.11094927 0.325733 1.3997399

model.4.weight f4 [64, 128]
00000000: 7a11 c0bd 3899 fe3b 0006 00bb c9cc 1ebe
00000010: d4a5 ffbc 0c0d 23bc 6fc2 13bc 2bac 2e3e
00000020: df88 01bd 148d 4f3d 7268 03bd 0aa5 62bd
00000030: 1b93 34bd 0d14 7b3d 2cf0 b73d 8650 a7bd
00000040: 6bd0 68bd bd28 a53d 92ed 17bd ebb0 37bd
00000050: dde0 763d 7e17 853d 3c8f e33a 2383 973d
00000060: 43c5 b23d 3818 9c3d 6a78 8bbd 12ca a63d
00000070: 7c44 11be 8aa6 763d 7a6a 35be c1f6 373d
00000080: fff9 3fbd 6f6f dabd a99f 60be 01d4 25bc
00000090: 92c4 f03b ab74 823c 0ba3 103d 4678 acba
000000a0: 7f77 143d 33d0 243d 1aac dd3c 4e0c a23e
000000b0: af10 813e cc40 d7bc 7fa7 85bd 9ead 0f3e
000000c0: 0e34 9b3c caa8 0abe 3e83 c83d 963a e63c
000000d0: 1b72 55be 8138 1e3d bbfc 74bc e59d 19bd
000000e0: cf9f 723e 0dc8 64bd f80b 853b 1cfe 193e
000000f0: 4fb7 423c 1a4f d7bd 472b b3bc aa89 04bc
00000100: 9822 68bd d2f7 9cbb 9732 113d 9f42 993c
00000110: c527 68bd a419 bcbd 4136 3e3d a098 bfbd
00000120: 1c48 c43c 9cc3 fbbc 2312 96bb 7ea6 c3ba
00000130: 743b 223e 5875 c83b 91bf 883d f2e4 d63b
00000140: f4e2 a53c 9995 6d3d 0692 943e 5cc7 f4bc
00000150: f8d8 a2bb d827 a03d ec8e 5e3d 6a81 cebc
00000160: e42b 843d 0e2e 183e ced2 543d 8a2a 283e
00000170: 3a1b 473d 6bb6 a4bc b905 8d3d 38ac 57be
00000180: 60d9 153e c65c 743c e827 d2bd 518a c7bd
00000190: 401f 0bbc ccf8 cdbd 114a 52bd 661b 4ebd
000001a0: a4f5 993d edd0 9bbc 8215 53bd db0d 553e
000001b0: 7acb 0dbd 85c9 8dbd b587 e1bc ffe7 b1bb
000001c0: ef2c db3c 2efb 143b 81cc 683d 5ad9 2e3d
000001d0: 009b c6bd 368c 1b3e db47 33be a47c 833e
000001e0: 40b4 25bd 8994 9e3c 9f56 0ebc 40f6 95bd
000001f0: dcff f43c 854b 41be 68eb 07bd 75d3 523c
00000200: ed5f 0abe 4c47 973c 1c83 383c 6173 74be
00000210: 4167 bbbc 8efb fb3b c63a 85bd 7bbe 183e
00000220: b8d2 d63d 1184 9dbd a116 5e3c 4487 29be
00000230: b933 1bbb f47f 05bd 1de5 b4bd 3561 d7bd
00000240: c792 5b3d 8d51 843b a662 0ebe e544 343d
00000250: 624d 023d ef60 383d 0256 a1bd 505b 4c3d
00000260: e39c 0d3e a404 eebb 349a 12bb 2f3d a13d
00000270: ea56 89bd 06a6 53bb 0ca3 f1bd 540e 003e
00000280: 2523 393d 4f3a a7bd c79c 52be dd3f 183d
00000290: 1213 b3bd 7f42 aa3d 5f55 99bb 30e1 f6bc
000002a0: 5d60 25be 500e 8bbc dece 073e 3404 0a3e
000002b0: bf65 f93d a44c 30bd 8918 b4bd d6a7 143e
000002c0: 2882 d03d d296 49be 97c4 e03c 212d 103d
000002d0: 287b bbbd c51a 653d a86d 8bbd 060c 08be
000002e0: eda8 213e f840 17bd 656d fabc a5d1 1f3c
000002f0: 8f8c 00bd 6124 743d 9d8e d4bc 1aa9 18be
00000300: dc93 28bd 25c0 853d 75dc 003e 18e5 57bc
00000310: 1d13 02be f134 09be 5316 f03c 8273 73bd
00000320: 614d c23d e3c8 e63d b034 45bd 5703 fc3c
00000330: 091e 683e 6c8f 513d 65f4 91bd 6014 7b3d
00000340: b89a 93bd b7bf c33d 16c0 1d3e bd0c 903c
00000350: 7da7 98bd 3faa 8a3d caa7 cfbc 166a 20bc
00000360: 74a6 57bc 60e3 723d 9be0 143e 1ba6 363e
00000370: 696a 9a3c 9697 b3bd aa8d a63d 04b1 5fbe
00000380: 4f0a 393e 6704 1c3c c43f bcbd d76b bebd
00000390: de11 d4bc b96a dfbd 713c 03be e2a3 ed3b
000003a0: e8d6 2bbd 51eb 1d3d 7567 60bd 3bc4 563e
000003b0: 4407 63bc 4fa7 38bd dcd2 cfbb b59d c6bb
000003c0: c92f f4bb e167 b0bd 276c c43d e917 5fbe
000003d0: 347f c4bd 04fd e63d a5bf aabd 07a1 3b3e
000003e0: 5181 92bd 5e46 18bc 7167 063c 83c3 c0bd
000003f0: a614 3a3d edf2 99be f6b7 f9bc 17bc d8bc
-0.093783334 0.00776973 -0.0019534826 -0.15507807 -0.031207003 -0.009951841 -0.009018525 0.17057864
-0.03162467 0.050671652 -0.03208203 -0.055333175 -0.044085603 0.06129842 0.08981356 -0.081696555
-0.056839388 0.08064411 -0.0370918 -0.044846456 0.06027304 0.064986214 0.0017361413 0.07398059
0.08729031 0.07621807 -0.068100765 0.081440106 -0.14186281 0.060217418 -0.17716399 0.044913057
-0.046869274 -0.106657855 -0.21935906 -0.010121346 0.0073476518 0.015924772 0.03531174 -0.0013158403
0.036246773 0.040237617 0.027059603 0.31650013 0.2520804 -0.026276015 -0.06526088 0.14031073
0.01894572 -0.1354095 0.097906575 0.028104108 -0.20844309 0.038628105 -0.014952834 -0.037504096
0.23693775 -0.055854846 0.0040602647 0.15038341 0.0118845245 -0.10513134 -0.021871222 -0.008089462
-0.056673616 -0.0047902847 0.035448637 0.018708525 -0.056678552 -0.09184578 0.04643846 -0.09355283
0.023960166 -0.030732922 -0.004579799 -0.0014926938 0.15842992 0.006117504 0.066771634 0.006558054
0.020249821 0.058003996 0.29017657 -0.029880218 -0.0049697123 0.078200996 0.05433552 -0.025208194
0.06453684 0.14861318 0.05195885 0.16422477 0.04860995 -0.020106515 0.06885857 -0.2106179
0.14633703 0.014914697 -0.10261518 -0.09743179 -0.008491337 -0.1005722 -0.051340166 -0.050319098
0.07517555 -0.019020522 -0.051534183 0.20806067 -0.03461788 -0.069232024 -0.02753053 -0.0054292674
0.026754824 0.0022732723 0.056835655 0.04268775 -0.09697533 0.15190205 -0.1750788 0.2568103
-0.040455103 0.019357936 -0.008687644 -0.07322359 0.02990716 -0.18876465 -0.033183485 0.012867798
-0.13513155 0.018466614 0.011261728 -0.23872139 -0.022876384 0.0076898998 -0.06505351 0.14916413
0.1048941 -0.07691205 0.0135552 -0.16555506 -0.0023681952 -0.03259273 -0.088327624 -0.10516588
0.053606775 0.004038042 -0.13904819 0.044011015 0.03181208 0.045014318 -0.07877733 0.04989177
0.13829379 -0.007263737 -0.0022369744 0.07872998 -0.06706031 -0.0032295003 -0.11798677 0.12505466
0.045199532 -0.08165418 -0.20567618 0.03717028 -0.08743872 0.083134644 -0.0046793665 -0.030136675
-0.16150041 -0.016974598 0.13262507 0.13478166 0.1217761 -0.04304184 -0.08793742 0.1451715
0.10181075 -0.1968644 0.027437491 0.03519929 -0.091543496 0.055933733 -0.06808025 -0.13285837
0.15787096 -0.036927193 -0.030569742 0.009754573 -0.031384047 0.059605006 -0.02594691 -0.14908257
-0.041156635 0.06530789 0.12584098 -0.013177179 -0.12702604 -0.13399102 0.02930752 -0.05943633
0.09487415 0.11268785 -0.04814595 0.030763311 0.22667708 0.05116217 -0.07126693 0.061298728
-0.07207245 0.09558051 0.15405306 0.0175842 -0.07453821 0.06770753 -0.025348563 -0.009790918
-0.013162244 0.059298873 0.14538805 0.17836802 0.018849568 -0.08769147 0.08132489 -0.2184487
0.18070339 0.009522534 -0.0919185 -0.092979126 -0.025887426 -0.109090276 -0.12816025 0.0072522024
-0.041952997 0.038554493 -0.054786164 0.20973293 -0.013856713 -0.045081433 -0.006342275 -0.0060612806
-0.0074519855 -0.08613563 0.09590941 -0.21786465 -0.095945746 0.11278728 -0.083373345 0.18323146
-0.071535714 -0.009294121 0.008203373 -0.09412291 0.045429848 -0.3006815 -0.030483227 -0.026456876

model.4.bias f4 [64]
00000000: d3c3 b5bc 8dac c9bc b98f 713d 50aa 173d
00000010: f801 cf3c 1853 bcbc d3e7 aa3d 650b 80bd
00000020: bb66 93bc 71b6 b93d ac54 1dbc 3b91 17bd
00000030: 863f 30bc 8b27 adbd 5fe3 9d3b 1ba6 893c
00000040: dcbe 483c 90c4 1bbd 5954 8ebc 2d81 1a3d
00000050: 35e4 a53d 12b9 5fbd 0196 863c 53a5 b73d
00000060: f632 0bbd acb9 a43d ccdd 743d fc73 7ebd
00000070: 700c a43c 119a 5a3c 7c3f 103c 94b3 f3bc
00000080: e834 b13d f33d a5bd 6a10 05bd 5bf1 b33d
00000090: 92a8 f63c d9de a73d 779e 63bd f556 a6bd
000000a0: f153 6ebd 0207 8c3a 5fdb 2e3d 22aa 913c
000000b0: fd50 9abd ebd7 abbd bc66 aa3d e506 a23b
000000c0: 08c1 76bd 6ee0 963c f4de babc 83a7 af3d
000000d0: 6074 8c3d e5a5 52ba 1ca8 04bd fe65 c63c
000000e0: 7bea 273d b4d0 4d3d 2e41 82bc 6bc8 3d3c
000000f0: 8378 073d 8813 973d 45ac b93d 43ee 2dbc
-0.022188103 -0.024618411 0.058974955 0.037027657 0.025269493 -0.022988841 0.08344998 -0.06252173
-0.017993322 0.09068001 -0.009602707 -0.037003737 -0.010757333 -0.08454808 0.0048183645 0.016802838
0.012252536 -0.038029253 -0.017374204 0.037720848 0.08100168 -0.054619856 0.01642895 0.0896708
-0.033984147 0.080432266 0.059781834 -0.06212233 0.020025462 0.013342396 0.008804198 -0.029748715
0.08652669 -0.080684565 -0.032486357 0.08786269 0.030109677 0.08196802 -0.055571046 -0.081220545
-0.05818552 0.0010683241 0.042689677 0.017781321 -0.075349785 -0.083907925 0.08320376 0.0049446695
-0.060242683 0.018417563 -0.02281139 0.08576872 0.06858134 -0.00080355845 -0.032386884 0.024218556
0.040995102 0.050247863 -0.01590022 0.011583428 0.033073913 0.07376772 0.09066061 -0.010615888

model.5.weight f4 [64]
00000000: c477 9e3f f3d1 923f 6bbd 9a3f c430 9c3f
00000010: b5eb 963f aa79 9b3f e177 933f 16a4 7b3f
00000020: d053 a03f 42ed 953f 0492 9b3f 97ba 9e3f
00000030: ba5d 9c3f 5e6f 953f f011 a43f 6b2b 833f
00000040: 0f00 9d3f 6799 813f 9b2a 803f 98b4 9a3f
00000050: 9865 993f 56e2 933f 8cc6 7e3f 7d6c 9c3f
00000060: 315b 713f 989e 953f bee9 943f 3177 793f
00000070: 8ed3 953f ec90 7e3f 3254 9a3f 310f 943f
00000080: 6fc9 803f 5235 973f 92da 9a3f 9ee5 973f
00000090: 14a2 823f 1023 9b3f 2866 993f 4220 793f
000000a0: a34a 9a3f d487 9a3f 46a9 a33f fc2c 963f
000000b0: 2abe 8e3f c6d5 913f e112 803f 84d8 953f
000000c0: 8f79 7d3f 1ca0 a03f 5a00 9e3f 1f05 a03f
000000d0: 5e63 983f 9598 a13f ee52 953f 1b80 9f3f
000000e0: 699b 7b3f 9866 753f 1653 943f 1c44 9c3f
000000f0: ad65 8d3f 150f 9f3f e5e3 a23f 38bb 8a3f
1.23803 1.1470321 1.2089056 1.2202382 1.1790682 1.2146504 1.1520959 0.9829725
1.2525578 1.171303 1.2153935 1.2400693 1.2216103 1.1674612 1.2817974 1.0247625
1.2265643 1.012494 1.0013002 1.2086363 1.1984129 1.1553447 0.9952171 1.2220608
0.9427977 1.1689024 1.1633832 0.97447497 1.1705186 0.99439883 1.2056944 1.1567136
1.0061473 1.1813147 1.2097952 1.1866949 1.0205712 1.2120075 1.1984301 0.97314847
1.2054027 1.2072701 1.2786033 1.1732478 1.1151783 1.1393363 1.0005761 1.17067
0.9901361 1.2548862 1.2343857 1.2501563 1.1905324 1.2624689 1.1665933 1.246097
0.9828401 0.9585967 1.1587856 1.2208285 1.1046654 1.2426478 1.2725798 1.0838385

model.5.bias f4 [64]
00000000: 2245 f4bd b870 15be 7aa8 22be 4c2f f6bd
00000010: 39e2 2cbe d902 b3bd c406 05be a4e8 8ebd
00000020: d8b8 c5bd c153 09be 604e 33be 3fe5 3bbe
00000030: 1261 f6bd d318 b5bd 4968 f7bd 5252 04bd
00000040: 2ccb babd ef1e 85bd 1e7e 80bd ce8a 1cbe
00000050: 9945 fcbd 1509 1abe 0801 14be 59c1 0fbe
00000060: 7deb dcbd 8304 f1bd e35a 11be 7e9b 51bd
00000070: c25e 1fbe 677f b8bd 5e1a 2ebe 0612 0dbe
00000080: a9bd c7bd 990b e4bd b98a 0abe d634 30be
00000090: b77d 68bd 7c5e 04be 977f 21be 36ff 2abe
000000a0: 9df2 1fbe 8823 1abe 6d20 dabd 27b9 28bc
000000b0: 88ff 87bc a5ee 09be 0e2a f7bd 004e 34be
000000c0: bd9d 46bd 5c67 d0bd 2f81 15be f37f 23be
000000d0: 4fde 3abe 80f4 e3bd b23a 3fbe 24db 0bbe
000000e0: effe b7bd faef 61be 8636 07be df97 ecbd
000000f0: 7baf 03be 61b2 09be 51c4 53bd 4bc1 f5bd
-0.119272485 -0.1459378 -0.15884581 -0.1202074 -0.16883172 -0.087407775 -0.12990862 -0.069779664
-0.09654397 -0.13410856 -0.17510366 -0.18349169 -0.120302334 -0.088426255 -0.12080438 -0.03230507
-0.09120783 -0.06500041 -0.06274055 -0.15287325 -0.12317962 -0.15042527 -0.14453518 -0.140386
-0.10787103 -0.11768439 -0.14194827 -0.05117368 -0.15563491 -0.09008675 -0.17002246 -0.13776407
-0.09752972 -0.111350246 -0.13529481 -0.17207655 -0.056760516 -0.12926668 -0.15771328 -0.16698918
-0.15619893 -0.15052617 -0.10650716 -0.01029805 -0.016601339 -0.13469942 -0.12068568 -0.1760788
-0.048490275 -0.10175964 -0.14600061 -0.15966778 -0.18248866 -0.11130619 -0.18674734 -0.13657814
-0.089841716 -0.220642 -0.13204393 -0.115524046 -0.12859909 -0.13446952 -0.051700894 -0.11999758

model.5.running_mean f4 [64]
00000000: a604 dbbe d671 48bf 08e1 05bf 30cb acbe
00000010: 88b6 39bf 9bc6 f5be c971 b4be a867 70bf
00000020: 07be cfbe 6236 e6be 3d90 53bf 0d51 19bf
00000030: 004b 09bf d61d 21bf ff39 ffbe d398 7bbf
00000040: f8d1 01bf 7175 94bf 404b 72bf 41b9 46bf
00000050: 5770 09bf 1607 30bf 2937 babf 39b1 16bf
00000060: 7042 b4bf 8588 06bf f2c3 2cbf 4d72 48bf
00000070: c59c 22bf e4a8 29bf 58c7 33bf c010 18bf
00000080: d854 7dbf da5c 27bf c038 45bf 2511 1bbf
00000090: 00b8 94bf 08e9 01bf bb40 3cbf dbb6 b5bf
000000a0: 46f0 20bf 1e0d 43bf 45d8 fdbe 2641 aabe
000000b0: 554d 82bb 513b 18bf b3b3 a3bf fb71 3abf
000000c0: f879 87bf f7a8 d6be 849a 32bf 1253 07bf
000000d0: e5e7 24bf ea77 e7be 2487 35bf c26c 32bf
000000e0: aab4 b5bf 18bd 9ebf 5770 12bf 0a69 e7be
000000f0: b08f 06bf da94 cebe cd3a 20bd c8be 12bf
-0.42776984 -0.782987 -0.52296495 -0.3374877 -0.72544146 -0.48003086 -0.3524306 -0.93908167
-0.40574667 -0.44963366 -0.82641965 -0.598893 -0.53630066 -0.6293615 -0.49848935 -0.98280066
-0.5071101 -1.159834 -0.9464607 -0.77626425 -0.5368704 -0.6876081 -1.4548084 -0.5886417
-1.4082775 -0.5255206 -0.6748649 -0.7829941 -0.6352046 -0.6627333 -0.7022605 -0.5940056
-0.98957586 -0.65376055 -0.7703972 -0.60573035 -1.1618652 -0.507462 -0.7353627 -1.4196428
-0.6286663 -0.7619189 -0.49579063 -0.3325283 -0.003976504 -0.5946551 -1.2789215 -0.7283017
-1.0584097 -0.41925785 -0.6976702 -0.5286113 -0.6441634 -0.45208675 -0.70909333 -0.696972
-1.4195759 -1.2401457 -0.57202667 -0.45197326 -0.52563 -0.4034794 -0.039118577 -0.5732236

model.5.running_var f4 [64]
00000000: 27ee 9140 2983 e040 56b9 bd40 cf2b 8c40
00000010: 6572 ca40 2486 8540 e611 bd40 b93c 4d40
00000020: 6318 7d40 cafd 9340 4cff d040 e51b 9f40
00000030: 08e5 a440 7c42 a240 5800 b140 c735 4040
00000040: be6f 9640 a65b 0240 236c 3b40 150a d840
00000050: 2b3a b740 feb2 bc40 eaec f43f 8735 bb40
00000060: e2ba f13f 07ff 9c40 1962 d540 7663 3940
00000070: e6b5 a340 16d0 2f40 d361 e540 f34a a640
00000080: 9102 3040 61b2 b040 be4c b640 24fb e240
00000090: 565a 3540 296d b840 bd7d cc40 3294 f93f
000000a0: e58b 9040 d7b4 c240 c3b5 a940 7905 7140
000000b0: 4802 5540 62fc ab40 e9ec 0640 627f c540
000000c0: e897 5840 bc6c 8c40 6053 b940 4b24 a640
000000d0: c23a c240 4b15 a940 5453 ae40 decb df40
000000e0: 5490 fe3f 5346 f03f 84ca a740 bfa1 a340
000000f0: c861 be40 1a0d a840 68cd 4e40 4d02 bc40
4.5603213 7.0160108 5.928874 4.3803477 6.326464 4.1726246 5.908435 3.2068312
3.9546134 4.62473 6.531164 4.972155 5.152958 5.070616 5.531292 3.0032823
4.7011404 2.0368438 2.9284751 6.7512307 5.7258506 5.8968496 1.91348 5.850284
1.8885157 4.9061313 6.668225 2.8966956 5.1159544 2.7470756 7.1681914 5.196649
2.7501566 5.521775 5.696868 7.093157 2.8336387 5.763325 6.390349 1.9498351
4.517077 6.084575 5.3034377 3.765959 3.3282642 5.3745584 2.1082098 6.1717997
3.3842716 4.3882732 5.7914276 5.1919303 6.0696726 5.2838492 5.447672 6.993636
1.9887795 1.8771461 5.243471 5.1134944 5.949436 5.2515993 3.231287 5.875281

model.8.weight f4 [32, 64]
00000000: 231c 4c3e b443 463e 66b0 043e 296c 8d3e
00000010: 68b4 1a3e 08e0 6d3c 19e6 5c3e fe3a a7bd
00000020: 475c 4b3d 1148 6b3e 1cb9 b53e b847 de3e
00000030: 178b f23d e4f9 573d efad 463e 57c7 aabc
00000040: 3561 5f3b f88a 113c 0901 babd 0d55 413e
00000050: b6d2 423c bbec 683e 9f38 30bd 5ca5 8e3e
00000060: 2b83 a93c c1b8 fb3d df7f 623d f296 31be
00000070: 292e 3f3e e112 00be efdc 863e e37c d0bb
00000080: e0c9 3dbd 0354 043e 25fd f03d ce5d 453e
00000090: 313d 62bd 7228 6a3e 69e4 1b3e 6e23 8abc
000000a0: cfd3 853e bd97 643e f759 813d f218 1c3e
000000b0: 27b7 343d e0f5 0c3e 2d5d eb3c c78f a73e
000000c0: 1b72 e3bd 6cf9 6d3c 45b2 823e 5a1b af3e
000000d0: 80ee 9a3e 887c c63d 5042 2e3e fc89 033e
000000e0: 2b0e 3a3d da90 083d 15af 683e 25a7 a33d
000000f0: 0f54 1b3e 4260 233e 57a7 30bd 9319 323d
00000100: 894b 3a3e 6e44 c23d 25cc 103e f361 393d
00000110: efdd 2f3e c65c 233e c49b 053e 7d38 833d
00000120: 54dc d73d 7faa 593e c6bd 013e 20e8 8a3e
00000130: e038 253d 3335 963d b9c0 7b3d 1584 d23c
00000140: c9cc 1e3e 8338 5d3d feac 503c 0a0b 043e
00000150: a539 913c 71a5 9e3c a143 2f3d adff 3f3e
00000160: 3c7c a93c 5667 423e acbf 183e bfee aa3a
00000170: 2bf4 643e 45d0 8c3c ffb8 043e 9ee9 833d
00000180: 24c0 573d e34b 263e c2d5 893d 7e50 7f3e
00000190: 7d32 3e3d 3204 373e 0027 303e f554 e23b
000001a0: 31b3 003e e5e3 213e c1e6 2f3e a82f 4f37
000001b0: a1de 343e 90d2 37bd b351 143c a3cd ac3d
000001c0: a960 a23c b3ea 34bd db0d 813e 9ec7 ee3d
000001d0: 7cdc 843e a565 2a3e 8e1e eb3d 7d1b 2e3e
000001e0: 980b d83b 321f 43bc 921e 2c3e 1257 1a3e
000001f0: ee1f 423e 93f5 183e 65bd 8e3b e4cf 6b3e
00000200: 3343 e8be 6f37 2bbd e66b 27be afc4 aabe
00000210: 56ac fa3c 3fec 8bbe fbf0 8fbd 60e9 aa3d
00000220: 02d0 ebbe 4d72 58bd 76e4 963b e7f9 3cbd
00000230: 5150 73be 6371 d0be 7673 b2be 1558 5f3d
00000240: cb81 9ebe 2494 8f3d da5d 543b d2ae 9ebd
00000250: 383f 79bd 8214 74be 67d7 a43d 8d85 57be
00000260: 3160 ea3d 91c4 3fbe e79d 40be d1e5 f5bc
00000270: ed0b 6cbe 34dd 383d 4c0d 1bbe b302 f0be
00000280: 1140 b83d 52de d2be 513f f0bd fc1a 50be
00000290: aabb 1c3d 257f f8bd ea34 c7be abcd 033e
000002a0: 9213 37be a15d 4abe debe 96be ac62 dcbd
000002b0: 052f 48be 0306 81be 2a05 f33d a337 d6bd
000002c0: 7f2f 353c d8ee 37be 8024 b1bb 0fda 40bd
000002d0: 2acf a13b ef58 c5be 9cbd 5ebe e260 60be
000002e0: 0d8d 4e3d aeda 703c eb6f 49be f0f7 c5be
000002f0: 7d22 94be c656 d0be c88b cebe 1da7 75be
00000300: 045a a8bc fdc7 793e 7b83 843e 43a0 073e
00000310: ef6b 963e 5de0 0c3e de25 8b3d fcbd 4abd
00000320: 9c2e 86bc 60d8 7d3e f943 713e 068d 9b3e
00000330: 7f4d 073d df5e e93d 6874 433e 21c0 923d
00000340: 95a5 863d 3315 923c 882b 5d3d 57c4 313e
00000350: f7f3 0a3e 42c9 193e a4e3 8c3d 0136 6b3e
00000360: ab56 8ebb 7221 6a3e 27e2 7f3d 2de3 f7bd
00000370: 2ba4 1f3e 24fd ebbc 2ef5 793e 02dd f93d
00000380: b8c8 b33c 7d21 e83d ce94 843e 0cdd 8f3d
00000390: 37f7 cbbc 432f 133e a68c 1b3e 2aeb 353c
000003a0: 4e5a 663e 5e2a cd3d 159d 383e 774a 733e
000003b0: d8c9 853d bbd2 753c 1617 453d 1e93 483e
000003c0: 22b4 59bd a196 c63d dd9b 0b3e 7ecc 893e
000003d0: 9cdb 843e 8efe 273d 5d62 833e 468d 5f3e
000003e0: 2287 8b3c 79b0 163d b46e cc3c bbb6 023e
000003f0: 4b1e 933d 1f3e 113e 7627 aa3d 0303 2b3e
0.19932608 0.19361764 0.12957916 0.27621582 0.15107882 0.014518745 0.2157215 -0.08165549
0.04964855 0.2297671 0.3549279 0.43414092 0.118429355 0.05272855 0.19402288 -0.020847006
0.003408504 0.00888323 -0.09082229 0.188801 0.011891058 0.22746556 -0.043022748 0.27860534
0.020692429 0.122910984 0.05529773 -0.17342737 0.18669952 -0.12507202 0.26340434 -0.006362544
-0.0463351 0.12922673 0.117670335 0.19274065 -0.055234138 0.22866991 0.1522385 -0.016862597
0.2613816 0.22323509 0.063159876 0.15243891 0.04411998 0.13765669 0.028730953 0.3272688
-0.11105748 0.014524799 0.25526634 0.34200555 0.30260086 0.09691721 0.17017484 0.12845606
0.045423668 0.033341266 0.22723038 0.07990865 0.15168785 0.15954688 -0.043128338 0.04348142
0.18192877 0.09485708 0.14140375 0.045259427 0.17174505 0.15953359 0.13047701 0.06407259
0.10540071 0.21256445 0.12670049 0.27130222 0.040337443 0.07334366 0.06146309 0.025697747
0.15507807 0.054008972 0.012736557 0.12894836 0.017727682 0.019365998 0.042789105 0.18749876
0.020689122 0.18984732 0.14916867 0.0013041123 0.22358768 0.017189154 0.12961195 0.06441043
0.052673474 0.16239886 0.06730224 0.24933049 0.046434868 0.17872694 0.17202377 0.0069071003
0.12568356 0.15809591 0.1717787 1.2349257e-05 0.17663051 -0.044878542 0.009052682 0.084376596
0.019821482 -0.04416914 0.25205883 0.11659168 0.25949466 0.16640337 0.11480437 0.17002673
0.006593179 -0.011909293 0.16808537 0.15072277 0.18957493 0.14937429 0.0043560737 0.23028523
-0.4536377 -0.041800912 -0.16349754 -0.33353183 0.030599754 -0.2732868 -0.07028385 0.08345294
-0.46057135 -0.05284338 0.0046048714 -0.046136763 -0.23761107 -0.40711507 -0.34853715 0.05452736
-0.309584 0.070106775 0.0032404573 -0.07748188 -0.060851306 -0.23835948 0.08048897 -0.2104704
0.11444128 -0.18727328 -0.18810235 -0.030016812 -0.23051424 0.04513283 -0.15141791 -0.4687706
0.08996595 -0.41185242 -0.11730827 -0.20322794 0.038264908 -0.12133626 -0.38907558 0.12871425
-0.17878559 -0.19762279 -0.29442495 -0.10761008 -0.19549187 -0.251999 0.11866219 -0.104598306
0.011058687 -0.17962205 -0.0054059625 -0.047082957 0.004938026 -0.38544413 -0.21752018 -0.21911958
0.050427485 0.014700575 -0.196716 -0.38665724 -0.28932562 -0.40691203 -0.4034102 -0.2398953
-0.020550735 0.24392696 0.25881562 0.13244729 0.29379222 0.13757463 0.06794332 -0.04949759
-0.016379647 0.24789572 0.23561086 0.3038103 0.03303289 0.11395048 0.19087374 0.07165552
0.06574551 0.017832374 0.053996593 0.17360054 0.13569628 0.1501818 0.068793565 0.2296982
-0.0043438277 0.22864321 0.062471535 -0.12103877 0.15589969 -0.02880723 0.24409935 0.12200357
0.021946296 0.113345124 0.2589478 0.07024583 -0.024898155 0.14373498 0.15190372 0.011103431
0.22495386 0.100178465 0.18028672 0.23758875 0.06532639 0.015003855 0.04811772 0.19587371
-0.053150304 0.09696699 0.13633676 0.26913828 0.259488 0.041014247 0.25660983 0.21831235
0.01703221 0.03678939 0.024955131 0.12765019 0.07183512 0.14183854 0.08308308 0.16700368

model.8.bias f4 [32]
00000000: 4aec 733e 94cb 3ebe fa17 a73d d27b 34be
00000010: 9b9f 173d fb46 933e 0e65 573e f8cb 2b3d
00000020: accf b93e 1e61 823e 4db2 3ebe e437 cd3d
00000030: 5b6b 703e 0cb9 7d3e ea79 313d 4405 533e
00000040: 8e21 51be ab38 143e cd9c 743e adc0 693e
00000050: 765d f03d 4dac 3f3e e91f 8d3e 780a 5b3d
00000060: 99a3 4a3e 1e7c ce3c 8dd2 143e 901a 603e
00000070: 7e7d 1f3e f5b9 c73d a467 203e 0fdc 93bd
0.23820606 -0.18632346 0.0815887 -0.17625359 0.037017446 0.2876509 0.21034643 0.041942567
0.36291254 0.2546472 -0.18622704 0.10020426 0.23478453 0.24777621 0.043329157 0.20607477
-0.20422956 0.14474742 0.2388794 0.22827406 0.11736576 0.18718071 0.27563408 0.05347678
0.1978897 0.025205668 0.14533444 0.21885133 0.15575215 0.09752265 0.15664536 -0.07219707

model.11.weight f4 [1, 32]
00000000: 85db 31be 7c22 93be 60c8 b23e 6021 6cbe
00000010: d2ce be3e e822 4abe 73ec 8fbe e95e da3e
00000020: 67d6 88be dadd 8e3e dfcd 31be 8a6f a13e
00000030: 38cb 573e 68ff 45be 4c47 bb3e 1bb1 86be
00000040: f9be 83be 981b b23e a8e7 7cbe 2556 643e
00000050: 2dba 8a3e 44f5 983e 42c8 59be 86df b53e
00000060: 38a1 7a3e 18ca d33e 2687 85be ee2f 4a3e
00000070: d781 643e e80e 873e 6257 443e efc6 82be
-0.17368896 -0.28737247 0.349185 -0.23059607 0.37267166 -0.19739878 -0.28110084 0.42650536
-0.26726076 0.27903634 -0.1736369 0.3153041 0.21073616 -0.19335711 0.36577833 -0.26306996
-0.25731638 0.34786677 -0.24697745 0.22298487 0.27095166 0.29874623 -0.21267799 0.35522097
0.24475563 0.41365123 -0.26079673 0.19744846 0.22315155 0.2637856 0.19173959 -0.255424
