Outputs/best_credit_risk_model_v2.pth (torch, 104751 bytes, 15 tensors)

model.0.weight f4 [128, 91]
0	0xbf23f59b	-0.6404664
1	0x3c2667cf	0.010156586
2	0x3b824426	0.003975409
3	0x3c13bff5	0.009017934
4	0xbbf009d8	-0.007325392
5	0xbc85f6ef	-0.016353099
6	0xbcb0a2c9	-0.021561997
7	0x3c5bf820	0.013425857
8	0xbb239ac2	-0.002496407
9	0xbb44079a	-0.0029911757
10	0xbc4f5a9b	-0.012655879
11	0xbeede43b	-0.4646319
12	0x3f2f1dd9	0.6840492
13	0xbe035089	-0.1282369
14	0x390e4c38	0.00013570569
15	0xbc8bcff5	-0.017066935
16	0xbccb1337	-0.024789436
17	0xbd651be9	-0.05593482
18	0x3bc62882	0.0060473094
19	0x3ae692be	0.001759134
20	0x3c5338d8	0.012891971
21	0x3cd18d68	0.025580123
22	0xbe26a38a	-0.16273323
23	0x3cbf3efc	0.023345463
24	0x3aac46d4	0.0013143667
25	0x3bf85f60	0.007579729
26	0xbc88bf31	-0.01669273
27	0x3adc2519	0.0016795724
28	0x3b545d62	0.0032404293
29	0xbca1bb32	-0.019742582
30	0x3c196dd3	0.009364563
31	0xbe7e9a59	-0.24863566
32	0x3c77388d	0.015089166
33	0xbc5233c6	-0.012829727
34	0x3c82e639	0.01597892
35	0x3c86cea4	0.016455956
36	0xba8b8efc	-0.0010647471
37	0x3cc9e244	0.024644025
38	0x3bb8444e	0.005623377
39	0xbc6846fa	-0.014177078
40	0x3d66285d	0.056190837
41	0x3d6dd254	0.058061913
42	0x3d672ffb	0.056442242
43	0x3e25bbc2	0.16184905
44	0x3d6e0fba	0.058120467
45	0x3d4b1bbc	0.049586996
46	0x3d13840c	0.0360146
47	0x3cadeded	0.021231616
48	0x3dd8d1f8	0.10586923
49	0x3da9772c	0.08274683
50	0x3c7ae3a8	0.015313067
51	0xbb1b287a	-0.002367525
52	0xbc102a8e	-0.008799208
53	0x3d9ca3f7	0.07648461
54	0x3d4b4136	0.049622737
55	0x3ce179fa	0.027523983
56	0x3c8ed62e	0.017436113
57	0x3d0768c0	0.03305888
58	0x3d215d6a	0.039395727
59	0x3dca6f80	0.09884548
60	0x3d7c1845	0.061546583
61	0x3d941ca6	0.07232027
62	0x3cb72828	0.022358015
63	0x3d6d7406	0.057971977
64	0xbe81ead3	-0.2537447
65	0x3cd69145	0.026192317
66	0x3d9253e5	0.07144908
67	0x3d233c8a	0.039852656
68	0x3d39739d	0.045276273
69	0xbea470aa	-0.32117206
70	0x3d79c8a3	0.060982358
71	0x3c8518f0	0.016247243
72	0x3d6d52d1	0.057940308
73	0x3e00d131	0.125798
74	0x3d815e5d	0.063168265
75	0x3d22e51d	0.03976928
76	0x3d1038ee	0.035210542
77	0x3d7db123	0.06193651
78	0x3b7961ea	0.0038052746
79	0x3d723883	0.059135925
80	0x3cc1a316	0.023637336
81	0x3d2b186d	0.04177134
82	0x3e066ef1	0.13128258
83	0x3c942c00	0.018087387
84	0x3d9af9d8	0.07567185
85	0x3d2a975d	0.041648258
86	0x3dadf53c	0.0849404
87	0x3d73bb35	0.059504706
88	0x3ccdc778	0.025119528
89	0xbe89c4b8	-0.26907897
90	0xbaedccab	-0.0018142661
91	0xbe9279e0	-0.28608608
92	0xbdd391b3	-0.10330524
93	0x3c9f1a7e	0.019421812
94	0x3c998c22	0.018743578
95	0xbd5f70ce	-0.05455094
96	0x3d727582	0.059194095
97	0x3cf4e267	0.029893113
98	0x3d36aa0f	0.044595774
99	0x3cf30c9b	0.029669097
100	0xbce43120	-0.027855456
101	0xbd40b982	-0.047051914
102	0xbf596b5d	-0.8492945
103	0x3f4f261d	0.8091753
104	0xbe3116f2	-0.17293909
105	0x3bf36fe8	0.0074291117
106	0x3d74a003	0.05972291
107	0x3cdcabd4	0.026937403
108	0x3a4f0d5e	0.0007898415
109	0xbe4d467b	-0.20046417
110	0xbed1d9f0	-0.40986586
111	0x3d12dd98	0.03585586
112	0x3cdd8772	0.027042124
113	0x3d24b07c	0.04020737
114	0x3a0407b2	0.0005036547
115	0xbd3c46d0	-0.04596597
116	0x3c57c24e	0.013168884
117	0xbc831d1b	-0.01600509
118	0x3ca9e54c	0.02073922
119	0xbcd3daa1	-0.025861086
120	0xbdced184	-0.10098556
121	0xbc30c631	-0.01078944
122	0x3cc68f4c	0.024238251
123	0xbbe4cf01	-0.0069826846
124	0x3bb00a91	0.0053723534
125	0xbc636337	-0.013878635
126	0x3d1bd0a5	0.038040776
127	0xbe56af0f	-0.20965217
128	0x3d881363	0.06644323
129	0x3d1d78c4	0.03844525
130	0x3cd965f3	0.026537871
131	0x3b7c5ff1	0.0038509334
132	0xbed07514	-0.40714324
133	0x3d375f35	0.04476853
134	0x3d99de59	0.075131126
135	0x3cc9907c	0.024605028
136	0x3cbfeaef	0.023427455
137	0xbca31c5c	-0.019910984
138	0x3cb5cc33	0.022192096
139	0x3d88ea36	0.06685297
140	0xbccd1cc2	-0.025038127
141	0xbd796461	-0.060886744
142	0xbdbbeb70	-0.091757655
143	0xbd5f0519	-0.05444822
144	0x3d2ca296	0.04214724
145	0xbe5100dd	-0.20410486
146	0x3d133c96	0.03594645
147	0x3d317e3d	0.04333328
148	0x3d2f3857	0.04277834
149	0x3d877b2e	0.066152915
150	0x3d70c8b0	0.05878514
151	0xbc352882	-0.011057021
152	0x3d20ab68	0.039225966
153	0xbbcea687	-0.0063064727
154	0x3d1f7e11	0.038938586
155	0xbbc6a8fb	-0.0060626245
156	0x3d6f1970	0.05837387
157	0x3d582af7	0.05277535
158	0x3de98949	0.11403138
159	0xbc869698	-0.01642923
160	0xbecc8c82	-0.3995095
161	0x3d2b2cd1	0.041790787
162	0xbc4662a2	-0.012108477
163	0x3d6639db	0.05620752
164	0x3d9f625f	0.07782435
165	0xbc6abecd	-0.014327717
166	0xbb62245d	-0.0034506537
167	0x3d4a0c6e	0.04932826
168	0xbc874f78	-0.016517386
169	0x38f34f00	0.00011601858
170	0xbeff88ca	-0.4990905
171	0x3cdae965	0.02672262
172	0x3cc44737	0.02395974
173	0xbbb24720	-0.0054406077
174	0x3cc630ed	0.024193252
175	0x3c9a35c2	0.018824462
176	0xbc9c53a9	-0.019082861
177	0x3d279c83	0.040920746
178	0x3c9098a6	0.017650913
179	0xbcfcb683	-0.030848747
180	0xbe71fc3e	-0.23631379
181	0x3ce27c93	0.027647292
182	0x3f1bbc6a	0.6083437
183	0x3ccf7ca4	0.025327988
184	0x3d7a00ed	0.06103604
185	0x3c835c33	0.016035175
186	0xbc815248	-0.015786305
187	0xbc696324	-0.014244828
188	0xbc0b070c	-0.008485567
189	0xbc1deaf6	-0.009638539
190	0xbc1f152c	-0.009709638
191	0xbc710501	-0.014710666
192	0x3c4ad9cf	0.012381031
193	0x3ee8bb4f	0.45455405
194	0xbf13fd3c	-0.5780828
195	0xbc978755	-0.018497149
196	0x3c380a67	0.011232949
197	0x3db95eba	0.09051271
198	0xbb9efc8a	-0.0048518823
199	0xbd14910b	-0.036271136
200	0xbc43f6c1	-0.011960686
201	0xbd0c06c9	-0.03418616
202	0x3c7c4fe2	0.015399905
203	0xbe0c2b52	-0.136884
204	0x3cf3e79e	0.02977353
205	0x3cd8f3a3	0.026483363
206	0x3c6bd9e6	0.014395213
207	0xbc5a790d	-0.013334525
208	0x3c141185	0.00903738
209	0xbb85958a	-0.0040766643
210	0x3c119afa	0.008887047
211	0xbada5d00	-0.0016659796
212	0x3ce72e6c	0.028220378
213	0x3a9ee0b2	0.0012121408
214	0x3b9f07ef	0.0048532407
215	0xbcd4767a	-0.0259354
216	0xbcd00527	-0.025393082
217	0x3caf20b0	0.021377891
218	0xbce0fea8	-0.02746518
219	0xbd102d01	-0.03519917
220	0xbddef318	-0.1088621
221	0x3beea676	0.0072830273
222	0x3c84d0b2	0.016212795
223	0xbdd90971	-0.10597504
224	0x3d15d231	0.036577407
225	0x3dc7bda7	0.0975297
226	0xbe0a8ea2	-0.13530973
227	0xbdbc427a	-0.09192367
228	0xbd3bc235	-0.045839507
229	0xbcc52cf6	-0.02406929
230	0x3d9afaf0	0.07567394
231	0xbe22ce8f	-0.15899108
232	0x3cba5f6e	0.022750583
233	0x3d33a2fb	0.043856602
234	0xbc623e35	-0.013808777
235	0x3d5949ea	0.053049006
236	0x3d6c1d47	0.05764511
237	0x3cbde64c	0.023181103
238	0x3ba257a1	0.004954294
239	0x3d3ba7d6	0.045814358
240	0x3d586b11	0.05283648
241	0x3cd61dd5	0.026137272
242	0x3db351eb	0.08755859
243	0x3c5627f5	0.01307105
244	0x3ceee6f2	0.029162858
245	0xbbac17d3	-0.0052518635
246	0x3b8d6441	0.0043149297
247	0x3d12f9a2	0.0358826
248	0xbe14f207	-0.14545451
249	0xbd10d62b	-0.035360496
250	0x3d079220	0.03309834
251	0xbd32abd1	-0.04362089
252	0x3cb04c22	0.021520678
253	0xbcfee2a8	-0.031113937
254	0x3cff3ff5	0.031158427
255	0x3d6d0fea	0.057876505

model.0.bias f4 [128]
0	0x3dd75f62	0.1051624
1	0x3b7f0e80	0.0038918555
2	0xbd87a527	-0.06623297
3	0xbb180ede	-0.002320222
4	0x3bdf309c	0.0068112146
5	0xbba106da	-0.004914147
6	0xbd300cae	-0.042980842
7	0x3d67f221	0.056627396
8	0x3d9c0770	0.07618606
9	0xbda58df6	-0.080837175
10	0xbde71b3a	-0.1128449
11	0xbd880492	-0.06641497
12	0x3ddd2bc6	0.10799365
13	0x3dbab6a1	0.09116865
14	0xbd03343f	-0.032032248
15	0x3cd38e0d	0.025824571
16	0xbd4e1510	-0.050313056
17	0x3dd20061	0.102539785
18	0x3d1e9dc6	0.038724683
19	0xbcaaff88	-0.0208738
20	0xbd1a6ddd	-0.03770243
21	0xbc78aad5	-0.015177448
22	0x3c84e06f	0.0162203
23	0xbc07578b	-0.008260618
24	0xbd4cca50	-0.049997628
25	0x3dbbc0b8	0.091676176
26	0x3c748be1	0.014925928
27	0xbd8a05d6	-0.06739394
28	0x3d2bb7f9	0.041923497
29	0xbb6b0f4f	-0.003586728
30	0xbcda99b8	-0.026684627
31	0x3cf7d05c	0.03025072
32	0xbd9c30f7	-0.07626527
33	0xbcb0ea97	-0.021596236
34	0xbcac8d16	-0.021063369
35	0x3c1be7e3	0.009515735
36	0x3d89b180	0.067233086
37	0xbd5812cf	-0.052752312
38	0x3da0a4ef	0.078439586
39	0xbbc3585e	-0.005961462
40	0xbdc6f638	-0.09714931
41	0xbd518044	-0.051147714
42	0x3c0117e4	0.007879231
43	0x3d1268d4	0.035744503
44	0x3cdc82cb	0.026917836
45	0x3dd2c377	0.10291188
46	0xbce52665	-0.02797241
47	0xbb84c09c	-0.004051281
48	0x3d88c6ce	0.06678544
49	0xbcfc6479	-0.030809628
50	0x3daad649	0.08341653
51	0x3db72d37	0.08944171
52	0x3da521af	0.08063065
53	0xbbf3b362	-0.0074371556
54	0xbbacff43	-0.005279453
55	0xbd7450bc	-0.059647307
56	0x3db67817	0.08909624
57	0xbd333125	-0.04374804
58	0xbbc4102e	-0.005983374
59	0xbdb2c809	-0.0872956
60	0x3d8dea57	0.069294624
61	0xbd58a112	-0.052887984
62	0x3d95c89f	0.07313656
63	0x3bde168a	0.006777589
64	0x3d4fc7aa	0.050727524
65	0x3c1d6b33	0.009608078
66	0x3d3c88f8	0.04602906
67	0xbd4f340b	-0.05058674
68	0xbd09e8b5	-0.033669192
69	0x3b8fd5bf	0.004389494
70	0xb9b1e284	-0.00033928838
71	0xbad4ed1b	-0.0016244979
72	0xbd81c5a4	-0.06336525
73	0x3c9aacd7	0.018881245
74	0x3ccda50e	0.025103118
75	0xbba6516c	-0.005075624
76	0xbd90e021	-0.07073999
77	0x3d95eba9	0.07320339
78	0xbb930b2d	-0.0044874162
79	0xbd2d7c5f	-0.042354938
80	0x3db426b9	0.08796448
81	0xbd884441	-0.066536434
82	0xbda4c39f	-0.08045124
83	0x3db7f9c3	0.08983185
84	0x3c7d9eb3	0.015479731
85	0x3baaddb0	0.0052144155
86	0x3d51654a	0.051121987
87	0x3cabc2dc	0.02096694
88	0x3daf2ee2	0.08553864
89	0x3d99db88	0.075125754
90	0x3c447255	0.0119901495
91	0x3d4e97a6	0.050437592
92	0xbdd3778c	-0.10325536
93	0xbcdf8981	-0.027287247
94	0xbcd5df2c	-0.026107393
95	0x3d282cf6	0.041058503
96	0x3dbe0d34	0.09279862
97	0xbd4134bf	-0.047169443
98	0x3d80f0e2	0.06295945
99	0x3d75105d	0.05983006
100	0xbd69fa14	-0.05712326
101	0x3bd5aab1	0.006520592
102	0x3d1a383d	0.03765129
103	0x3db59cf6	0.088678285
104	0xbcfbad35	-0.03072224
105	0xbc580c9d	-0.013186601
106	0xbd90d733	-0.07072296
107	0x3dd47b80	0.10375118
108	0xbce60520	-0.028078616
109	0xbd51112a	-0.05104176
110	0xbd87b9a4	-0.06627205
111	0xbdf336ac	-0.11875662
112	0xbd4818e5	-0.048851866
113	0xbd33dc25	-0.043911118
114	0xbccfbb2c	-0.025357805
115	0xbbd5b9c9	-0.0065223915
116	0xbd86cf1a	-0.0658247
117	0xbdb70d65	-0.08938102
118	0x3d231cef	0.039822515
119	0x3c8e5115	0.017372647
120	0x3db10068	0.086426556
121	0x3d90a63b	0.07062956
122	0xbd03aa7d	-0.032145012
123	0x3c442a78	0.011973016
124	0x3da1052a	0.07862313
125	0x3cb740dd	0.022369796
126	0xbd999ca6	-0.075005814
127	0xbd8b8a6a	-0.0681351

model.1.weight f4 [128]
0	0x3f8683db	1.0508989
1	0x3f772cce	0.9655274
2	0x3f6fa6be	0.93613803
3	0x3f64b884	0.8934405
4	0x3f554b57	0.83318084
5	0x3f87fbe8	1.0623751
6	0x3f6ac03b	0.9169957
7	0x3f3dbc8d	0.7411583
8	0x3f5dbb26	0.8661369
9	0x3f870f05	1.0551459
10	0x3f635d84	0.8881457
11	0x3f6014c9	0.87531716
12	0x3f62e873	0.8863594
13	0x3f707961	0.9393521
14	0x3f30c4ed	0.69050485
15	0x3f83aff2	1.0288069
16	0x3f1b3780	0.6063156
17	0x3f3e6c54	0.74384046
18	0x3f4db958	0.8036094
19	0x3f5a7127	0.85328907
20	0x3f2fce34	0.68674016
21	0x3f6d34f0	0.926589
22	0x3f6a6e39	0.91574436
23	0x3f952ab9	1.1653663
24	0x3f67fd53	0.9062092
25	0x3f5eefbe	0.8708457
26	0x3f5f1e35	0.8715547
27	0x3f622f80	0.8835373
28	0x3f5a9a40	0.85391617
29	0x3f6da1f2	0.92825234
30	0x3f37f2c6	0.7185482
31	0x3f2e0075	0.6796945
32	0x3f404351	0.75102717
33	0x3f48830a	0.7832495
34	0x3f38018e	0.7187737
35	0x3f38bbe6	0.7216171
36	0x3f453cad	0.7704571
37	0x3f916d51	1.1361486
38	0x3f4b3ff6	0.7939447
39	0x3f4fbb93	0.8114559
40	0x3f5592b4	0.83426976
41	0x3f58a026	0.8461937
42	0x3f8d89ea	1.1057713
43	0x3f3ca8a8	0.7369485
44	0x3f8e0d1c	1.1097751
45	0x3f889eef	1.0673503
46	0x3f882f6f	1.0639476
47	0x3f434a73	0.76285475
48	0x3f58c8a6	0.84681165
49	0x3f6233a6	0.8836006
50	0x3f24a6d2	0.6431705
51	0x3f593711	0.8484965
52	0x3f90ad9e	1.1302984
53	0x3f84cc00	1.0374756
54	0x3f59bf46	0.85057485
55	0x3f7302b8	0.94926023
56	0x3f8d2c59	1.1029159
57	0x3f57c6e3	0.8428785
58	0x3f21beb7	0.6318163
59	0x3f488b9e	0.7833804
60	0x3f84d994	1.03789
61	0x3f737c76	0.9511179
62	0x3f73ea5e	0.9527949
63	0x3f5b59ed	0.8568409
64	0x3f26325d	0.649206
65	0x3f9460e1	1.1592065
66	0x3f6cee90	0.9255152
67	0x3f6b80f5	0.9199365
68	0x3f956aa1	1.1673166
69	0x3f50d6c8	0.8157773
70	0x3f20e5b8	0.62850523
71	0x3f547462	0.82990086
72	0x3f26b139	0.6511417
73	0x3f671822	0.902712
74	0x3f42884a	0.7598921
75	0x3f52fc8c	0.82416606
76	0x3f778d55	0.9670003
77	0x3f4fab03	0.8112032
78	0x3f48b592	0.78402054
79	0x3f38b4be	0.7215079
80	0x3f2a72b4	0.66581273
81	0x3f376121	0.7163258
82	0x3f573f63	0.84081095
83	0x3f5d9e9b	0.8657014
84	0x3f51979f	0.8187198
85	0x3f41493e	0.75502384
86	0x3f46aaa8	0.7760415
87	0x3f399316	0.7249006
88	0x3f933f3c	1.1503673
89	0x3f88cefe	1.0688169
90	0x3f8a00d6	1.0781505
91	0x3f745819	0.95446926
92	0x3f3c2601	0.7349549
93	0x3f4fcc02	0.81170666
94	0x3f85e6f7	1.046111
95	0x3f9a350a	1.2047436
96	0x3f5290e2	0.82252324
97	0x3f93c947	1.15458
98	0x3f76f296	0.96463907
99	0x3f4de037	0.8042025
100	0x3f2384c8	0.63874483
101	0x3f23218d	0.6372307
102	0x3f63ea94	0.8902981
103	0x3f5d8cf1	0.86543185
104	0x3f81acf2	1.0130904
105	0x3f345013	0.70434684
106	0x3f5bf18f	0.85915464
107	0x3f256ef2	0.64622414
108	0x3f2a8c0b	0.6661994
109	0x3f807453	1.0035499
110	0x3f2dfbbc	0.6796224
111	0x3f8d06a4	1.1017652
112	0x3f4e8169	0.80666214
113	0x3f4fe751	0.81212336
114	0x3f3d19d6	0.7386755
115	0x3f4b4aaf	0.79410833
116	0x3f2a8cc7	0.6662106
117	0x3f3617db	0.7113015
118	0x3f33e6e7	0.70274204
119	0x3f3d59f8	0.73965406
120	0x3f270503	0.6524202
121	0x3f71c87a	0.9444653
122	0x3f61c710	0.8819437
123	0x3f3fb043	0.7487833
124	0x3f66036c	0.8984897
125	0x3f98d9d8	1.1941481
126	0x3f688523	0.9082815
127	0x3f15f759	0.5858055

model.1.bias f4 [128]
0	0xbe92ed1b	-0.28696522
1	0xbd2bf754	-0.041983917
2	0x3dd7f83b	0.10545393
3	0xbe0bdecc	-0.13659209
4	0xbe5c5774	-0.21517736
5	0x3ec822d5	0.39089075
6	0xbe55acb2	-0.2086666
7	0xbef224a1	-0.4729357
8	0xbed15268	-0.40883183
9	0x3eb21b67	0.3478653
10	0xbe8597f8	-0.26092505
11	0xbe79fa90	-0.24411988
12	0xbe3bd24f	-0.18341945
13	0xbd8e6711	-0.06953252
14	0xbec06364	-0.3757583
15	0x3e91b6cf	0.28459784
16	0xbea5d258	-0.32387042
17	0xbea5a986	-0.323559
18	0x3aa82cb8	0.001283071
19	0xbe2a9bd7	-0.1666101
20	0xbef0a705	-0.47002426
21	0xbe7fad6c	-0.24968499
22	0xbe3f4647	-0.18679152
23	0xbe9ea1e5	-0.3098289
24	0xbe1ebccd	-0.1550171
25	0x3e439640	0.19100285
26	0xbe37025a	-0.17871991
27	0xbe7518de	-0.23935267
28	0x3bb3c021	0.00548555
29	0xbe01b2d5	-0.12665875
30	0xbeb97812	-0.3622442
31	0xbf0bbbfa	-0.54583704
32	0xbe64d68d	-0.2234747
33	0xbe8b45c4	-0.27201664
34	0xbe83e757	-0.25762436
35	0xbef363d4	-0.475371
36	0xbd641fc4	-0.055694357
37	0xbe86ee76	-0.26353806
38	0x3e02dfc6	0.12780675
39	0xbe4cf608	-0.20015728
40	0xbe85f3c5	-0.26162544
41	0xbe7bdef6	-0.24596772
42	0xbe8a6816	-0.27032536
43	0xbec3363a	-0.3812731
44	0xbe8afba6	-0.27145118
45	0x3ed3b86a	0.41351634
46	0x3eb20f27	0.34777185
47	0xbeb57e59	-0.35447958
48	0xbe6105bb	-0.21974842
49	0xbe78d061	-0.2429824
50	0xbecd1d22	-0.4006129
51	0xbef78c62	-0.4834929
52	0xbe8bd9b7	-0.2731454
53	0xbd072325	-0.0329925
54	0xbdd1186f	-0.102097385
55	0xbe3aa4f0	-0.18226981
56	0xbe958517	-0.29203102
57	0xbe9a6544	-0.30155385
58	0xbeb9d4b7	-0.362951
59	0xbe41ae83	-0.18914227
60	0x3e8b9501	0.27262118
61	0xbe8962ac	-0.26833093
62	0xbd92b512	-0.07163443
63	0xbe53123f	-0.20612429
64	0xbedf98fc	-0.43671405
65	0xbea0e7cd	-0.3142685
66	0x3e506549	0.20351137
67	0xbe8aa294	-0.27077162
68	0xbea7ac0a	-0.32748443
69	0xbe755809	-0.23959364
70	0xbea957b9	-0.3307474
71	0xbe6239c8	-0.22092354
72	0xbe89988b	-0.26874194
73	0xbdf6ec18	-0.1205675
74	0xbe85315a	-0.26014215
75	0xbc94334b	-0.018090865
76	0xbe478a24	-0.1948629
77	0xbed771c7	-0.42078993
78	0xbd81e5cc	-0.063426584
79	0xbeb40565	-0.35160366
80	0xbec0c111	-0.37647298
81	0xbec02c9e	-0.3753404
82	0xbe5979c0	-0.2123785
83	0xbe5e6a1a	-0.21720162
84	0xbe0d21ad	-0.13782378
85	0xbed06cb3	-0.4070793
86	0xbec568cc	-0.38556516
87	0xbeda5fa9	-0.42651108
88	0xbeaa37e9	-0.3324578
89	0xbe896859	-0.26837423
90	0x3ed63e43	0.41844377
91	0xbe50db60	-0.20396185
92	0xbeb248d5	-0.3482119
93	0xbdc5b36f	-0.09653365
94	0x3eca142b	0.39468512
95	0xbeb1f001	-0.3475342
96	0xbda9d5e1	-0.08292747
97	0xbe9eb85b	-0.31000027
98	0xbe69a8f7	-0.22818361
99	0xbeb93504	-0.3617326
100	0xbeb476a9	-0.3524678
101	0xbe8001ca	-0.25001365
102	0xbe670a61	-0.22562553
103	0xbe2d1e78	-0.16906154
104	0xbe954f88	-0.2916224
105	0xbed9afd7	-0.42516968
106	0xbe2ffe36	-0.17186818
107	0xbe85ccbf	-0.2613277
108	0xbee727f3	-0.45147666
109	0x3ea783f0	0.32717848
110	0xbdbb105f	-0.09133982
111	0xbe953ffc	-0.2915038
112	0xbe9b733d	-0.30361357
113	0xbdf7ed36	-0.12105791
114	0xbf016081	-0.5053788
115	0xbe99e890	-0.30060244
116	0xbecf41bd	-0.40479842
117	0xbe3f3355	-0.18671925
118	0xbe6aa0a6	-0.22912845
119	0xbea88350	-0.32912683
120	0xbe93194c	-0.28730237
121	0x3e478afe	0.19486615
122	0xbe7af6fa	-0.24508277
123	0xbeb06093	-0.3444868
124	0xbaa47c8b	-0.0012549324
125	0xbeaa5358	-0.3326671
126	0xbe18b1b0	-0.14911532
127	0xbf050e76	-0.5197519

model.1.running_mean f4 [128]
0	0x3de9d997	0.11418455
1	0x3b35cbc2	0.0027739857
2	0xbd8dfab6	-0.06932585
3	0xbc53c876	-0.012926212
4	0x3b501e34	0.0031756284
5	0xbb838fa4	-0.004014926
6	0xbd4771e0	-0.048692584
7	0x3d8e9db1	0.06963671
8	0x3d99c131	0.075075515
9	0xbda7b693	-0.0818912
10	0xbde63a4f	-0.1124159
11	0xbd813264	-0.063084394
12	0x3dd060f9	0.10174746
13	0x3df7964c	0.12089214
14	0xbd10aa58	-0.035318702
15	0x3cdebfc7	0.027191056
16	0xbd269d06	-0.040677093
17	0x3de0d901	0.1097889
18	0x3d1a1967	0.03762188
19	0xbd01f863	-0.03173102
20	0xbd61d3af	-0.055133518
21	0xbc91583d	-0.01774227
22	0x3ca6dabc	0.020367973
23	0xbbc5a9e3	-0.006032215
24	0xbd35cd99	-0.044385526
25	0x3db89e92	0.0901462
26	0x3cc066c7	0.023486508
27	0xbd84f270	-0.06491554
28	0x3d41de2e	0.047331028
29	0x3c8d7196	0.017266076
30	0xbcd84b20	-0.02640301
31	0x3d4b46ca	0.049628057
32	0xbdb24c43	-0.08705952
33	0xbd2eab6d	-0.042643953
34	0xbc93b275	-0.01802943
35	0x3c88d9bf	0.016705392
36	0x3d8a9181	0.06766034
37	0xbd54cd86	-0.051953815
38	0x3daeb799	0.08531112
39	0xbc80ab38	-0.015706643
40	0xbdc02425	-0.09381894
41	0xbd39dca6	-0.045376442
42	0x3c59b73d	0.013288316
43	0x3cca2d04	0.024679668
44	0x3cc56b0b	0.024098894
45	0x3dd0a194	0.101870686
46	0xbccefa7e	-0.025265928
47	0x3b8ef0e8	0.0043622144
48	0x3d78f7be	0.06078314
49	0xbca3627f	-0.019944428
50	0x3de8babc	0.11363742
51	0x3daa4fd5	0.08316008
52	0x3d9759b5	0.07390157
53	0xbb89ba32	-0.0042031044
54	0xbbc78a2b	-0.006089469
55	0xbd8606cf	-0.065442674
56	0x3db39f61	0.087706335
57	0xbd4da72c	-0.050208256
58	0xbbca0392	-0.0061649764
59	0xbdc7d838	-0.09758037
60	0x3d96eb4c	0.07369098
61	0xbd4602a0	-0.048342347
62	0x3d8732eb	0.06601509
63	0x3c812e92	0.015769277
64	0x3d35a9cd	0.044351388
65	0x3c03dbc5	0.008048003
66	0x3d3376bc	0.043814406
67	0xbd72eca4	-0.05930771
68	0xbd0d6ad4	-0.034525707
69	0x3c5abb7d	0.013350365
70	0x3ce8eaac	0.028432213
71	0x3c6724f2	0.01410793
72	0xbd2c81d2	-0.042115994
73	0x3c2efa65	0.010679816
74	0x3c42f7a5	0.011899863
75	0xbb4a7342	-0.0030891453
76	0xbd8da796	-0.0691673
77	0x3db0c46f	0.08631217
78	0xbbfa9379	-0.0076469746
79	0xbc5360b8	-0.0129014775
80	0x3db59d82	0.08867933
81	0xbd89884f	-0.06715452
82	0xbd801ebb	-0.06255861
83	0x3dbf5608	0.09342581
84	0x3b18286a	0.0023217448
85	0x3b0f5cdc	0.0021875417
86	0x3d4a90eb	0.04945461
87	0x3cd9f6d1	0.026606949
88	0x3db063b3	0.08612766
89	0x3d9ef49a	0.07761498
90	0x3c6a9c9c	0.014319565
91	0x3d552845	0.052040357
92	0xbdbcb60a	-0.09214409
93	0xbd11b84f	-0.03557616
94	0xbce6f4e9	-0.028192954
95	0x3d235a38	0.03988096
96	0x3de0aa32	0.10969962
97	0xbd2d81aa	-0.042359985
98	0x3d772d01	0.060345653
99	0x3d6b5163	0.057450663
100	0xbd25c0b0	-0.040466964
101	0x3c729c39	0.014807754
102	0x3d39375f	0.04521882
103	0x3dbd79e6	0.09251766
104	0xbd086520	-0.033299565
105	0xbbe03c20	-0.006843105
106	0xbd75e320	-0.060031056
107	0x3dc015f4	0.09379187
108	0xbd11cf04	-0.035597816
109	0xbd46b19a	-0.048509218
110	0xbd9b7ed5	-0.07592551
111	0xbdef351b	-0.11680051
112	0xbd3fc735	-0.046820838
113	0xbd1a110c	-0.037613913
114	0xbc7a2dff	-0.015269755
115	0xbc3a3247	-0.011364526
116	0xbd73b1e8	-0.059495836
117	0xbdcb2f16	-0.0992109
118	0x3d352e46	0.044233583
119	0x3c088a3c	0.008333739
120	0x3dbda218	0.092594326
121	0x3d8de683	0.06928732
122	0xbd10e2a1	-0.03537238
123	0x3cef2e8b	0.029196998
124	0x3dac9fca	0.08428915
125	0x3cb01243	0.021493083
126	0xbdb4fad1	-0.08836902
127	0xbd8949c6	-0.06703524

model.1.running_var f4 [128]
0	0x3f83f51c	1.0309176
1	0x40207f16	2.5077567
2	0x3f5cdc23	0.862734
3	0x3ff98f98	1.9496946
4	0x3fe8c42e	1.8184869
5	0x3f147ff5	0.58007747
6	0x3f1626c9	0.5865293
7	0x3f773666	0.9656738
8	0x3f214eed	0.63011056
9	0x3e4545d8	0.19264925
10	0x3f8bf32b	1.0933584
11	0x3fac590c	1.3464675
12	0x4006df38	2.1073742
13	0x4019e80d	2.4047883
14	0x3f9d1cb5	1.2274386
15	0x3e588db2	0.21147802
16	0x4030fc9b	2.7654178
17	0x3fa3587c	1.2761378
18	0x3fdf47a2	1.7443736
19	0x3fdcffc5	1.7265555
20	0x3fceae7d	1.6147
21	0x3faab892	1.3337576
22	0x4007d3c4	2.1223001
23	0x3f153b94	0.58294034
24	0x3ff1f13a	1.8901742
25	0x3f923759	1.1423141
26	0x3ff8f69c	1.9450259
27	0x3ffcdcef	1.9754924
28	0x3f336d79	0.70088917
29	0x4013e86c	2.311061
30	0x3fd6b483	1.6773838
31	0x3fb3c055	1.404307
32	0x3ff8c906	1.9436347
33	0x3fe133b0	1.7593899
34	0x3fc84459	1.5645858
35	0x3fd84668	1.6896486
36	0x3fb7d39f	1.4361457
37	0x3f3e3688	0.7430196
38	0x3f837552	1.0270178
39	0x40284533	2.6292236
40	0x3fd09c54	1.6297708
41	0x400a531a	2.161322
42	0x3f81ea3c	1.0149608
43	0x3fb97740	1.4489517
44	0x3f654811	0.8956309
45	0x3e414b38	0.1887635
46	0x3f29706c	0.6618717
47	0x3fe23ad9	1.7674209
48	0x4006ca2c	2.1060896
49	0x3fec9820	1.8483925
50	0x3ff74d40	1.932045
51	0x3f4a2b6b	0.789725
52	0x3f50646c	0.8140323
53	0x3ffe1e5f	1.9853019
54	0x3f7582ea	0.95902884
55	0x3fded33c	1.7408214
56	0x3f3f4488	0.74713945
57	0x3fea9b3c	1.8328624
58	0x4003febc	2.0624228
59	0x404a7cec	3.1638746
60	0x3f598d93	0.8498165
61	0x3fb91168	1.4458437
62	0x400ab079	2.167021
63	0x3f903f43	1.1269306
64	0x400026e7	2.0023744
65	0x3f11d85a	0.5697075
66	0x3e728a5b	0.23685591
67	0x3ff4db78	1.9129477
68	0x3f1b661c	0.6070268
69	0x40022fdd	2.0341713
70	0x402b3755	2.6752522
71	0x4027eba4	2.6237574
72	0x40179ce5	2.368951
73	0x4040bdd1	3.0115855
74	0x4009f7ec	2.155757
75	0x3fa3f970	1.2810497
76	0x3ff41139	1.9067756
77	0x3fa1e8a5	1.2649122
78	0x3f8478e4	1.0349393
79	0x403c15cb	2.9388301
80	0x3fbe3be1	1.4862024
81	0x3fa23a5e	1.2674062
82	0x4019b540	2.4016876
83	0x400870de	2.1318889
84	0x4027e7d3	2.6235244
85	0x401198f1	2.2749598
86	0x3fc18c42	1.5120928
87	0x3fabcea7	1.342244
88	0x3f23119a	0.6369873
89	0x3f661c38	0.8988681
90	0x3f31ac21	0.6940327
91	0x3fd0793e	1.6287
92	0x40183b20	2.3786087
93	0x400e24bd	2.2209923
94	0x3e3a270c	0.18178958
95	0x3f16b513	0.5887005
96	0x3fb141e5	1.3848234
97	0x3f350abc	0.70719504
98	0x3ee97daa	0.45603687
99	0x3f864db4	1.0492463
100	0x3fff2a80	1.9934845
101	0x3ff7b15e	1.9351003
102	0x400387e6	2.0551696
103	0x3fa8ca8a	1.318681
104	0x3f37ae9a	0.71750796
105	0x3faf1a8e	1.3679979
106	0x402a3124	2.6592493
107	0x401932ca	2.393725
108	0x3fb44420	1.408329
109	0x3f5effba	0.8710896
110	0x3fe4849a	1.7852967
111	0x3f40a9ce	0.752591
112	0x40068912	2.102116
113	0x3f3fcb76	0.7491983
114	0x3fc6237f	1.5479583
115	0x4028616b	2.630946
116	0x3ff7b2c7	1.9351434
117	0x3fb3df26	1.4052474
118	0x402501a3	2.578225
119	0x3fe3aa29	1.7786304
120	0x3fbd639c	1.4796023
121	0x3f251a6e	0.64493454
122	0x3f16c144	0.5888865
123	0x3fec0ac7	1.8440789
124	0x3f760714	0.9610455
125	0x3f0bb30c	0.5457008
126	0x402e316e	2.721767
127	0x3fe4886c	1.7854133

model.4.weight f4 [64, 128]
0	0xbe384db8	-0.17998397
1	0xbe9a3e2c	-0.30125558
2	0x3d5a6b45	0.053324956
3	0xbddb7d9d	-0.10717318
4	0xbe8835f6	-0.2660367
5	0x3d75a461	0.059971217
6	0x3e467152	0.19379166
7	0x3b88122c	0.004152557
8	0x3d92bce1	0.07164932
9	0xbcd7d81a	-0.026348162
10	0x3e45bc70	0.19310164
11	0x3d428718	0.047492117
12	0xbe8678d3	-0.26264057
13	0xbe3eeb98	-0.1864456
14	0x3c6e30cc	0.014538001
15	0x3ce801f2	0.02832124
16	0x3d47290d	0.048623133
17	0xbb3f8e76	-0.00292292
18	0x3e22dcf6	0.15904602
19	0xbda82c67	-0.08211594
20	0x3de095bf	0.10966062
21	0xbe17eb1f	-0.14835785
22	0xbe455a09	-0.19272627
23	0x3d313dd5	0.04327186
24	0xbe0da3ee	-0.13832065
25	0x3cd117cf	0.025524048
26	0xbe4cdaaf	-0.20005296
27	0xbbf1eabf	-0.0073827202
28	0xbbf3c801	-0.007439614
29	0xbeaf4052	-0.3422876
30	0xbb9e9190	-0.0048391297
31	0x3c43ff0c	0.011962663
32	0x3d7012b2	0.05861158
33	0x3db6dc61	0.08928753
34	0x3bff5aca	0.0077928053
35	0xbde83136	-0.11337511
36	0x3dc5052c	0.09620127
37	0xbde1e4e6	-0.11029987
38	0x3b991da0	0.004672721
39	0xbe392a66	-0.1808258
40	0xbdd4356b	-0.10361751
41	0xbd7cd3ac	-0.061725304
42	0xbe10ed94	-0.14153129
43	0x3e4df742	0.20113853
44	0xbe4a5962	-0.1976066
45	0x3c3a7362	0.0113800485
46	0x3dbe3e28	0.09289199
47	0x3d196bb8	0.037456244
48	0xbe43868d	-0.19094296
49	0xbe71ea28	-0.2362448
50	0x3d8eeb2e	0.06978451
51	0x3ddc03eb	0.10742935
52	0xbdc69d4c	-0.09697971
53	0xbe98d5fb	-0.29850754
54	0xbdbb22a6	-0.09137468
55	0xbdebfb24	-0.11522511
56	0xbdaf6acb	-0.08565291
57	0xbde0baf4	-0.109731585
58	0xbda04223	-0.078251146
59	0xbd8c056d	-0.068369724
60	0x3c5b5bed	0.013388616
61	0xbd9e57ea	-0.07731612
62	0xbe8abb0b	-0.27095827
63	0x3ca01d9b	0.019545367
64	0x3e2eba8f	0.17063354
65	0xbe297262	-0.1654754
66	0x3d18fe14	0.037351683
67	0xbdffaa9f	-0.12483715
68	0xbdd1443e	-0.10218094
69	0x3e5f8b0a	0.21830383
70	0xbe066fcc	-0.13128585
71	0xbdc176ea	-0.09446509
72	0x3c4f1a2e	0.012640519
73	0xbe2c985f	-0.16855
74	0xbdd5b17a	-0.104342416
75	0xbad751f3	-0.0016427621
76	0x3d134a07	0.03595927
77	0xbd0ed5a0	-0.034871697
78	0x3e05a80c	0.13052386
79	0x3e7103b6	0.23536572
80	0xbd04af8f	-0.03239399
81	0x3d68fb7b	0.056880455
82	0xbe28991e	-0.1646466
83	0xbe19e68d	-0.15029354
84	0xbd82bbd8	-0.063834846
85	0xbe17a361	-0.14808418
86	0x3dbc545a	0.09195776
87	0xbd961fee	-0.07330309
88	0xbd1e5d8c	-0.038663432
89	0xbe0edf90	-0.1395247
90	0x3d4794d2	0.04872591
91	0xbe2bb677	-0.16768824
92	0xbe29acb7	-0.16569792
93	0xbca49d6d	-0.020094598
94	0x3c442538	0.011971764
95	0xbe0b8e7f	-0.13628577
96	0x3dc300b9	0.09521622
97	0xbe4f3e18	-0.2023853
98	0x3d6afa7b	0.057367783
99	0x3d750cc7	0.05982664
100	0xbb2f174a	-0.0026716762
101	0xbcb9d442	-0.02268422
102	0xbe8df493	-0.27725658
103	0xbd799140	-0.060929537
104	0xbdd16a80	-0.102253914
105	0xbdb4ab96	-0.0882179
106	0x3d86bef8	0.06579393
107	0xbddd2fee	-0.108001575
108	0x3e334ab2	0.17508963
109	0x3dab0831	0.08351172
110	0x3d4f1ad8	0.05056271
111	0xbe2b612a	-0.16736284
112	0xbd5780f1	-0.052613202
113	0x3db27df3	0.08715429
114	0xbdebae9a	-0.11507912
115	0xbda9480a	-0.082656935
116	0xbe315390	-0.17317033
117	0x3de90b53	0.11379113
118	0xbce4a681	-0.027911426
119	0x3e80a08e	0.25122494
120	0x3c8409bf	0.016117929
121	0x3c94b0a8	0.018150643
122	0x3df19c38	0.117973745
123	0xbccb1332	-0.024789426
124	0xbcdb931d	-0.026803548
125	0xbe030878	-0.127962
126	0xbe95de8c	-0.29271352
127	0x3d27f2df	0.041003104
128	0xbe493975	-0.19650824
129	0xbe460948	-0.19339478
130	0x3d1d7e1f	0.038450357
131	0xbda17de8	-0.07885343
132	0xbe4ec630	-0.2019279
133	0x3d2cd9c8	0.04219988
134	0x3e60215c	0.21887726
135	0x3d6a5f07	0.05721953
136	0x3e90cc38	0.28280807
137	0xbcfe6a11	-0.031056436
138	0x3e8ad36c	0.27114427
139	0x3d4ce66f	0.050024446
140	0xbdb9875c	-0.09059021
141	0xbe111089	-0.14166464
142	0x3ba02636	0.0048873676
143	0xbb673c3a	-0.00352837
144	0xbdb6ba8d	-0.089223005
145	0xbcc77ccc	-0.0243515
146	0x3dffa6d3	0.12482991
147	0xbde18b26	-0.110128686
148	0x3e2b2900	0.16714859
149	0xbdbc9c63	-0.09209516
150	0xbe13ad5d	-0.14421602
151	0xbdf65d63	-0.12029531
152	0xbdb92496	-0.09040181
153	0x3d80e24a	0.06293161
154	0xbe368f14	-0.17828017
155	0xbca47aac	-0.020078026
156	0x3bf9c423	0.0076222583
157	0xbe6f0483	-0.23341565
158	0xbdaf34b1	-0.08554972
159	0xbd312516	-0.04324826
160	0x3c8eb0eb	0.017418345
161	0x3e12545e	0.14289996
162	0x3dbf5492	0.093423024
163	0xbd9e836a	-0.07739909
164	0x3ce40366	0.027833652
165	0xbe32a161	-0.17444374
166	0x3d6b47a6	0.057441376
167	0x3cb5382c	0.022121511
168	0xbddf8321	-0.10913683
169	0xbdf7f571	-0.12107361
170	0xbd81935c	-0.06326935
171	0x3e420efb	0.18951027
172	0xbe72a52e	-0.23695824
173	0x3d361644	0.044454828
174	0x3ddaaba5	0.1067727
175	0xbda77926	-0.08177404
176	0xbe3651bc	-0.17804617
177	0xbe5e8425	-0.21730097
178	0x3dd5064b	0.10401591
179	0x3eb08760	0.34478283
180	0xbe2e6011	-0.17028834
181	0xbe1ab004	-0.15106207
182	0x3ba155a1	0.004923538
183	0xbe18f96b	-0.14938895
184	0xbe189715	-0.14901383
185	0xbd95971e	-0.07304214
186	0xbcb60f97	-0.02222423
187	0xbc8f0bad	-0.017461622
188	0x3d49f73d	0.04930805
189	0xbe00a06b	-0.12561195
190	0xbe3c9208	-0.18415082
191	0xba99c921	-0.0011732915
192	0x3d6bbba9	0.057552014
193	0xbe279749	-0.16366304
194	0x3df6be14	0.12047973
195	0xbe4ee3fa	-0.20204154
196	0xbe48534a	-0.19563022
197	0x3e853abf	0.26021382
198	0xbd74ed4b	-0.059796613
199	0xbdc69cfa	-0.0969791
200	0xbcdb5614	-0.026774444
201	0xbe0f29c1	-0.13980772
202	0xbdf21508	-0.11820418
203	0xbda140f3	-0.07873716
204	0x3d3c5b18	0.04598531
205	0xbd3570e6	-0.04429712
206	0x3d39ffd2	0.045409985
207	0x3db87949	0.09007508
208	0x3cb21525	0.021738598
209	0xbd2ee711	-0.04270083
210	0xbdb84a95	-0.089986004
211	0xbdf94dd6	-0.12173049
212	0xbe44bef0	-0.19213462
213	0xbe33c078	-0.1755389
214	0x3e7cafd5	0.2467645
215	0xbcad4e15	-0.021155396
216	0xbe827eaf	-0.25487277
217	0xbda0135d	-0.07816193
218	0x3c328f21	0.010898382
219	0xbe21a517	-0.15785633
220	0xbd469e2e	-0.048490696
221	0x3bb739f6	0.0055916263
222	0x3a99bea8	0.0011729794
223	0xbdea618e	-0.11444388
224	0x3b525119	0.0032091795
225	0xbe2e9c3a	-0.17051783
226	0x3d933848	0.07188469
227	0x3dd5a7a0	0.104323626
228	0x3db083a0	0.086188555
229	0xbd998441	-0.074959286
230	0xbe166a7d	-0.1468906
231	0x3d892fbf	0.0669856
232	0xbe447e43	-0.1918879
233	0x3cb458cb	0.022014996
234	0xbd6a031a	-0.057131864
235	0xbdf48805	-0.11940006
236	0x3e006249	0.12537493
237	0x3d57a779	0.05264995
238	0x3c38832e	0.011261744
239	0xbe0afe31	-0.13573529
240	0xbd7a0f23	-0.06104959
241	0x3dbc8102	0.09204294
242	0xbbff904e	-0.007799185
243	0x3cfb1086	0.030647527
244	0xbda4488d	-0.080216505
245	0x3da81621	0.08207346
246	0xbc86d610	-0.016459495
247	0x3e289fac	0.1646716
248	0x3c59e6dc	0.01329967
249	0x3d1d27a5	0.038367886
250	0x3db12938	0.0865044
251	0x3ddcddff	0.1078453
252	0x3d6f749f	0.058460828
253	0xbdbe487a	-0.092911676
254	0xbe568144	-0.20947748
255	0x3ddbf1de	0.10739492

model.4.bias f4 [64]
0	0x3d9ed531	0.07755507
1	0xbd9c0bb6	-0.07619421
2	0xbacb81e8	-0.0015526386
3	0xbcfa7290	-0.030572206
4	0x3d901ad2	0.070363656
5	0x3b8b9937	0.004260208
6	0xbd3aedad	-0.04563682
7	0x3d4ecba8	0.05048719
8	0x3bebc4d6	0.0071950955
9	0x3d9089a1	0.07057501
10	0x3dc34837	0.09535258
11	0x3cc3091d	0.023808056
12	0xbb8d7f7b	-0.0043181754
13	0x3cdb2c63	0.026754564
14	0xbd8d1ab7	-0.06889861
15	0xbc9216b7	-0.017833097
16	0xbd931e01	-0.07183457
17	0x3d10dbe7	0.035365965
18	0xbce01c4f	-0.027357249
19	0x3d59f97a	0.053216435
20	0xbd4ed333	-0.050494384
21	0x3dab96aa	0.08378346
22	0x3d47fa5b	0.048822742
23	0xbd199315	-0.037493784
24	0x3ce67ae8	0.028134778
25	0x3cb9506e	0.02262136
26	0x3ce04c10	0.02738002
27	0x3ae1b816	0.0017221
28	0x3d9da90f	0.07698261
29	0xbd7c3fc0	-0.061584234
30	0xbb94a7e3	-0.004536615
31	0xbc73d54e	-0.014882399
32	0x3da31a37	0.079639845
33	0x3d645c2e	0.055751972
34	0xbc27a6d7	-0.010232649
35	0xbd63b832	-0.055595584
36	0x3d999641	0.07499362
37	0xbb9f8d72	-0.0048691565
38	0x3cd9a06f	0.026565759
39	0x3d3fb3da	0.04680238
40	0xbcdcb9a6	-0.026943993
41	0xbd3016f5	-0.042990644
42	0xbd9add08	-0.075616896
43	0xbcb77c48	-0.02239813
44	0x3dc183a1	0.09448934
45	0x3bd6a4ee	0.006550423
46	0x3dbb1b4d	0.091360666
47	0x3d451bf4	0.04812236
48	0x3d9315d5	0.071818985
49	0xbdac97fb	-0.084274255
50	0x3d4dae33	0.050214957
51	0xbc6c139a	-0.01440897
52	0x3d9f3305	0.07773403
53	0xbd0d1ee7	-0.0344533
54	0xbc06a983	-0.008219126
55	0xbd3e1f10	-0.046416342
56	0x3d75c40e	0.060001425
57	0x3be16177	0.006878074
58	0x3dbd71cd	0.092502214
59	0xbd80b1f0	-0.06283939
60	0x3d52f010	0.051498473
61	0x3d53581c	0.0515977
62	0xbd34879c	-0.04407464
63	0x3ce6a7fb	0.028156271

model.5.weight f4 [64]
0	0x3f73d265	0.9524291
1	0x3f810192	1.0078604
2	0x3f977b65	1.1834532
3	0x3f9a3dbc	1.205009
4	0x3f97571c	1.1823459
5	0x3f962b54	1.1731973
6	0x3f9b28a3	1.2121776
7	0x3f9d9a39	1.231269
8	0x3f6a53ca	0.915341
9	0x3f995e9f	1.1982001
10	0x3f90689f	1.1281928
11	0x3f935d0d	1.1512772
12	0x3f980c28	1.187871
13	0x3fa0f6df	1.2575339
14	0x3f9594cf	1.1686038
15	0x3f980fd3	1.1879829
16	0x3f93893e	1.1526258
17	0x3f9caeb6	1.2240818
18	0x3f98320a	1.1890271
19	0x3fabb434	1.3414369
20	0x3f9964c6	1.1983879
21	0x3f8fdff0	1.1240215
22	0x3f959119	1.1684905
23	0x3f971471	1.1803113
24	0x3f92247c	1.1417384
25	0x3f966b23	1.1751446
26	0x3faf5d66	1.3700378
27	0x3f781e7f	0.96921533
28	0x3f98b07d	1.192886
29	0x3f9cbd49	1.2245265
30	0x3f96d383	1.1783298
31	0x3f7be5d4	0.98397565
32	0x3f9d488d	1.2287766
33	0x3f69af32	0.9128295
34	0x3f915712	1.1354697
35	0x3f99be87	1.2011269
36	0x3f920f45	1.141091
37	0x3f9b4f17	1.2133511
38	0x3f78b9dd	0.97158605
39	0x3f9b1197	1.2114743
40	0x3fa201dd	1.2656819
41	0x3f9bc31d	1.2168919
42	0x3f791049	0.97290474
43	0x3f9a227e	1.2041776
44	0x3f8c9d25	1.0985457
45	0x3f962274	1.1729264
46	0x3f91b1bb	1.1382364
47	0x3f7929a2	0.9732915
48	0x3f981df2	1.1884139
49	0x3f7427bb	0.95373124
50	0x3f7b191b	0.9808518
51	0x3f88b3e8	1.0679903
52	0x3f948b77	1.1605061
53	0x3f7f4d21	0.99727064
54	0x3f94363e	1.1579053
55	0x3f9990e7	1.1997346
56	0x3f97ac29	1.1849414
57	0x3f724841	0.946415
58	0x3f9bff4f	1.2187289
59	0x3f906a11	1.1282369
60	0x3f9a279c	1.2043338
61	0x3f92be9b	1.1464418
62	0x3fa66d61	1.300213
63	0x3f9bd752	1.2175086

model.5.bias f4 [64]
0	0xbe421dc4	-0.18956667
1	0xbe2df45d	-0.16987748
2	0xbe084610	-0.13307977
3	0xbe2578fe	-0.16159436
4	0xbdfe3902	-0.12413217
5	0xbe35c87f	-0.17752264
6	0xbe20f7a8	-0.15719473
7	0xbe1d63de	-0.15370128
8	0xbeb3de1e	-0.351304
9	0xbe268d93	-0.16264944
10	0xbe302b2e	-0.17203972
11	0xbe3cd97f	-0.18442343
12	0xbe3ef14f	-0.1864674
13	0xbdfd1bc4	-0.123588115
14	0xbe16b0e5	-0.14715917
15	0xbe0bcb07	-0.13651668
16	0xbe19c455	-0.15016301
17	0xbe57b3f9	-0.21064748
18	0xbe4889e9	-0.19583859
19	0xbd1805f0	-0.037115037
20	0xbe57916c	-0.21051568
21	0xbe400409	-0.1875154
22	0xbe09fce2	-0.13475373
23	0xbe4815b1	-0.19539525
24	0xbe4f2ea2	-0.20232633
25	0xbe01a694	-0.12661201
26	0x3d74ce30	0.05976695
27	0xbe3d846a	-0.18507543
28	0xbe01ace7	-0.12663613
29	0xbdd51b67	-0.10405617
30	0xbe2bef1e	-0.16790435
31	0xbe595683	-0.21224408
32	0xbe0ebe51	-0.13939787
33	0xbe2d8575	-0.16945441
34	0xbe3cc21e	-0.18433425
35	0xbe1b2cc9	-0.15153803
36	0xbe2f8395	-0.17140038
37	0xbe1ce806	-0.15322885
38	0xbe517515	-0.2045482
39	0xbdff655a	-0.12470503
40	0xbdc9cc7f	-0.09853458
41	0xbe0e317d	-0.13886066
42	0xbdf600a0	-0.12011838
43	0xbe1196c4	-0.14217669
44	0xbe2237a8	-0.15841544
45	0xbcd8a4d7	-0.02644579
46	0xbe365802	-0.1780701
47	0xbe835818	-0.25653148
48	0xbd7e39d9	-0.062066887
49	0xbe4d5a00	-0.20053864
50	0xbe90b0df	-0.28259942
51	0xbe31c21a	-0.173592
52	0xbe2edeb4	-0.17077142
53	0xbe251866	-0.16122589
54	0xbe31ddb7	-0.17369734
55	0xbe2ce8fe	-0.16885754
56	0xbe422ce2	-0.18962434
57	0xbe363945	-0.17795284
58	0xbe0e5481	-0.13899423
59	0xbe373bfc	-0.17893976
60	0xbe0c7ecf	-0.13720249
61	0xbe356a89	-0.17716421
62	0xbdd957ab	-0.106124245
63	0xbe3ac4de	-0.18239161

model.5.running_mean f4 [64]
0	0xbf185afe	-0.59513843
1	0xbed88937	-0.42292187
2	0xbed6fbb8	-0.4198892
3	0xbf2e5ebc	-0.68113303
4	0xbeda70c0	-0.42664146
5	0xbf3c0a62	-0.7345334
6	0xbf45305c	-0.77026916
7	0xbefb5ac7	-0.49092695
8	0xbf9dff83	-1.2343601
9	0xbf29d05b	-0.6633355
10	0xbf0c0dd2	-0.5470859
11	0xbf4a75f9	-0.7908626
12	0xbf29cd41	-0.6632882
13	0xbee30479	-0.4433935
14	0xbf3c0498	-0.7344451
15	0xbec0b374	-0.37636912
16	0xbf10fdfc	-0.5663755
17	0xbf4e0913	-0.80482596
18	0xbf44ae5c	-0.7682855
19	0xbdb379c0	-0.08763456
20	0xbf2f755c	-0.6853845
21	0xbf149630	-0.5804167
22	0xbf1832fe	-0.5945281
23	0xbf199461	-0.59992033
24	0xbf123a1d	-0.57119924
25	0xbefa4179	-0.48878077
26	0x3dc699e3	0.0969732
27	0xbf8cef2f	-1.1010493
28	0xbef585aa	-0.4795354
29	0xbe9cd753	-0.3063303
30	0xbf4889a2	-0.7833501
31	0xbfa1d617	-1.264346
32	0xbefed502	-0.49771887
33	0xbf94c74b	-1.1623319
34	0xbf61161a	-0.8792435
35	0xbf2db235	-0.6785005
36	0xbf156fc9	-0.58373696
37	0xbee65b2f	-0.44991443
38	0xbfaed315	-1.3658167
39	0xbed65302	-0.41860205
40	0xbef92691	-0.48662236
41	0xbf24a8ea	-0.6432024
42	0xbf6e6f1d	-0.93138295
43	0xbf4d0f43	-0.8010141
44	0xbf0e9eb0	-0.5571089
45	0x3da228e0	0.079179525
46	0xbf38e0b5	-0.72217876
47	0xbf9d43a6	-1.228627
48	0xbe1d4ae3	-0.15360598
49	0xbf8b9472	-1.0904677
50	0xbf7d2775	-0.9888833
51	0xbf433820	-0.76257515
52	0xbef99221	-0.487443
53	0xbf9d3238	-1.228095
54	0xbf059842	-0.5218545
55	0xbf30b13d	-0.69020444
56	0xbf0c52c6	-0.548138
57	0xbf223f48	-0.6337781
58	0xbf222b20	-0.63347054
59	0xbf45a9e1	-0.7721234
60	0xbed95ba3	-0.42452726
61	0xbf2899d9	-0.6585975
62	0xbf2d1ef1	-0.6762534
63	0xbf4498c7	-0.7679562

model.5.running_var f4 [64]
0	0x407d9d2c	3.962718
1	0x40822b3e	4.0677786
2	0x40d53f77	6.663997
3	0x410004cc	8.001171
4	0x40e8296c	7.2550564
5	0x40f49b08	7.6439247
6	0x410f728b	8.965465
7	0x40ed4502	7.414674
8	0x4020fef6	2.5155616
9	0x40fcc2f2	7.898797
10	0x41124873	9.142688
11	0x410ae827	8.681678
12	0x4100c9d7	8.049277
13	0x40ed6bf6	7.419429
14	0x40f4bdab	7.648153
15	0x40c643cd	6.1957765
16	0x40d186f0	6.547722
17	0x4102b42e	8.168989
18	0x40f3483e	7.6025686
19	0x402db7e7	2.7143495
20	0x40c817b4	6.2528934
21	0x40f65058	7.6973076
22	0x410326da	8.196985
23	0x40b5134c	5.6586056
24	0x40e09011	7.017586
25	0x40f0c2c1	7.5237737
26	0x401443f0	2.3166466
27	0x4059b93b	3.4019306
28	0x40ed20ee	7.4102697
29	0x408bf6d8	4.3738823
30	0x40ff00af	7.9688334
31	0x4008ca50	2.1373482
32	0x40d9200b	6.7851615
33	0x3ff7bb14	1.9353967
34	0x41204af8	10.018303
35	0x41008b7c	8.034054
36	0x40c4d23d	6.150664
37	0x40e6894d	7.2042603
38	0x401682f1	2.351742
39	0x40dff04c	6.998083
40	0x40cea527	6.45766
41	0x40feb4e0	7.9595795
42	0x40373162	2.862389
43	0x410672f7	8.403068
44	0x4114c665	9.298436
45	0x40455624	3.0833826
46	0x40f96d50	7.794594
47	0x40065dae	2.0994678
48	0x40acc8d3	5.3995147
49	0x3ff5c652	1.9201148
50	0x40318aaa	2.7740884
51	0x40f0bc1b	7.522962
52	0x40eb7e51	7.3591695
53	0x400d5002	2.2080083
54	0x409db265	4.9280267
55	0x40f30d98	7.5954094
56	0x40bed809	5.9638715
57	0x404b8dc1	3.180527
58	0x40e73361	7.225022
59	0x4106f2c4	8.434269
60	0x40ef8e85	7.4861474
61	0x40f680fc	7.703245
62	0x40d7d4c1	6.744721
63	0x4111de13	9.116717

model.8.weight f4 [32, 64]
0	0x3d564648	0.05231312
1	0x3d1f0b6e	0.03882926
2	0x3db12e72	0.08651437
3	0x3d89f7fc	0.067367524
4	0x3e13ea0f	0.14444755
5	0x3e59123a	0.21198359
6	0x3e052c25	0.13005121
7	0x3da4cc30	0.08046758
8	0xbca10947	-0.019657744
9	0x3d9f1f61	0.07769657
10	0x3e0d6ccd	0.13811035
11	0x3dfdae58	0.12386769
12	0x3e03ea6c	0.12882394
13	0x3e022849	0.1271068
14	0x3e3f749c	0.18696827
15	0x3e7124b8	0.23549163
16	0x3d2ecb6c	0.042674467
17	0x3e59512d	0.21222372
18	0x3e968a49	0.29402378
19	0x3ca7a284	0.020463236
20	0x3e99f834	0.30072176
21	0x3e5b42f4	0.2141226
22	0x3e28cee3	0.16485171
23	0x3e0e5226	0.13898525
24	0x3e7d16c1	0.24715711
25	0x3e471388	0.19441044
26	0xbbf1e76c	-0.007382324
27	0x3c598f3c	0.013278779
28	0x3dfa9789	0.12235934
29	0xbd4f6c39	-0.05064032
30	0x3dd34601	0.103160866
31	0xbb9e49aa	-0.004830559
32	0x3b452e52	0.0030087424
33	0x3b0210e3	0.001984649
34	0x3e810168	0.25196385
35	0x3d8d047c	0.06885621
36	0x3de8495e	0.11342119
37	0xbc4d59cb	-0.012533615
38	0x3aec2316	0.0018015828
39	0x3d57fb45	0.052729864
40	0x3dd3d07a	0.10342498
41	0x3d760d21	0.060071114
42	0x3d0145de	0.03156077
43	0x3e9a5a54	0.3014704
44	0x3d0e7a9f	0.03478491
45	0xbd8396a8	-0.0642522
46	0x3e0dba90	0.13840699
47	0xbcfcb88e	-0.030849721
48	0xbc1f793d	-0.009733495
49	0xbc7b126b	-0.015324215
50	0xbc084ea6	-0.0083195325
51	0x3d3954fd	0.045247067
52	0x3dafce36	0.085842535
53	0x3c02c540	0.007981598
54	0x3e754a55	0.23954137
55	0x3e897123	0.2684413
56	0x3e809d3f	0.2511997
57	0x3d246b2d	0.040141273
58	0x3e6dc824	0.23220879
59	0x3e41baa3	0.18918853
60	0x3dc80196	0.097659275
61	0x3db34ad0	0.08754504
62	0x3e3390fe	0.17535779
63	0x3e30d2ba	0.17267886
64	0xbd1edfbd	-0.038787592
65	0xbda78ee7	-0.08181553
66	0x3d40e62b	0.047094505
67	0x3d9f5049	0.07778985
68	0x3da243f7	0.079231195
69	0x3e4b68a4	0.19864136
70	0x3e0f26e0	0.13979673
71	0x3e4a9651	0.19783904
72	0xbc2c3284	-0.010510091
73	0x3e44d546	0.19221982
74	0x3d68dc2a	0.05685059
75	0x3e67a709	0.22622313
76	0x3e93f567	0.28898165
77	0x3e5bdbf1	0.2147062
78	0x3e233df4	0.15941602
79	0x3e72e0d9	0.23718585
80	0x3e78b6ca	0.24288478
81	0x3e881047	0.2657492
82	0x3ead2cc5	0.3382322
83	0xbd6a5521	-0.05721009
84	0x3ec8df02	0.3923264
85	0x3e4fcc57	0.20292793
86	0x3e4c04c6	0.19923696
87	0x3e8b889a	0.27252656
88	0x3ebd11fa	0.36927778
89	0x3e48a9a8	0.19595969
90	0x39ed3f48	0.0004525131
91	0x3cb560c8	0.022140875
92	0x3e7d403d	0.24731536
93	0x3d6c77f7	0.057731595
94	0x3d827924	0.06370762
95	0x3ce7ef52	0.028312359
96	0x3e834b2b	0.25643286
97	0x3d0545fb	0.03253744
98	0x3e8b6167	0.2722275
99	0x3e72ad7d	0.23698993
100	0x3e50d66a	0.20394292
101	0x3e10c958	0.14139307
102	0x3cd26ad1	0.0256857
103	0x3e119af8	0.14219272
104	0x3e5e25a2	0.21694043
105	0x3e402567	0.18764268
106	0xbd342ec1	-0.0439899
107	0x3e4beb48	0.19913971
108	0x3cb1dc03	0.021711355
109	0xbda503a1	-0.08057333
110	0x3e97707c	0.29578006
111	0x3c432806	0.011911398
112	0xbc4f45fe	-0.012650965
113	0x3c1e4097	0.009658954
114	0x3c93c6bb	0.018039098
115	0x3e40cb75	0.18827613
116	0x3e770e14	0.24126464
117	0x3d11b844	0.03557612
118	0x3e4233f2	0.18965128
119	0x3e7bea2b	0.24601047
120	0x3ec43d56	0.38328046
121	0xbd282764	-0.04105319
122	0x3d29300d	0.04130559
123	0x3e60a966	0.2193962
124	0xbb48b651	-0.0030626247
125	0x3d806b39	0.06270451
126	0xbcc1db84	-0.023664244
127	0x3e0846d6	0.13308272
128	0xbe4040c6	-0.18774709
129	0xbe9a0420	-0.30081272
130	0x3e2575da	0.16158238
131	0x3ddf79e4	0.10911921
132	0x3df53126	0.11972265
133	0x3e62de07	0.22155009
134	0x3e51b666	0.20479736
135	0x3d34e996	0.044168077
136	0xbdd4cba5	-0.103904046
137	0x3dc3eadd	0.09566281
138	0x3e71abec	0.23600739
139	0x3e40f798	0.1884445
140	0x3e8b99e5	0.2726585
141	0x3cd4f829	0.025997238
142	0xbced67ea	-0.028980214
143	0x3deccd53	0.115626
144	0x3d62ec10	0.055400908
145	0x3e2ad66c	0.16683358
146	0x3e2fe8a8	0.17178595
147	0x3e19e4aa	0.15028635
148	0x3e932e14	0.28746092
149	0x3e923da3	0.2856265
150	0x3e0f1822	0.1397405
151	0x3e1dd6e4	0.15414006
152	0x3e09999a	0.134375
153	0x3dad08a4	0.08448914
154	0x3e183c59	0.14866771
155	0xbdf5a644	-0.11994603
156	0x3d4b8d21	0.049695138
157	0xbdaa03de	-0.08301519
158	0x3ddc2c05	0.107505836
159	0xbd826df4	-0.06368628
160	0x3e4e3ed1	0.2014115
161	0xbe032a5f	-0.12809132
162	0x3d8d6e5e	0.069058165
163	0x3e65250e	0.22377416
164	0x3d70b538	0.058766574
165	0x3cf0149d	0.029306704
166	0xbd3901b3	-0.045167636
167	0x3cd5ba5f	0.026089845
168	0x3dba0de1	0.090846784
169	0x3dce3264	0.10068205
170	0xbe4a26f0	-0.19741416
171	0x3e0e7856	0.13913092
172	0x3d4aa9c0	0.049478292
173	0x3d6c0738	0.05762407
174	0x3e11502a	0.14190736
175	0xbdb3bbb3	-0.08776035
176	0x3d9993d0	0.07498896
177	0xbe107220	-0.14106035
178	0xbdbe1af5	-0.092824854
179	0x3bd65eec	0.0065420773
180	0xbc3d0b3f	-0.011538326
181	0xbda21717	-0.0791456
182	0x3dc3f05e	0.09567331
183	0x3dae4f31	0.08511198
184	0x3ea21166	0.316539
185	0xbe4ba475	-0.19886954
186	0x3dea4bb6	0.11440222
187	0x3db766b3	0.08955135
188	0x3ba242a6	0.004951793
189	0x3dd4ee32	0.10396995
190	0x3d875880	0.06608677
191	0x3d548ee1	0.051894072
192	0x3bbdad31	0.0057884683
193	0xbd39eeaf	-0.045393642
194	0x3d0ee94a	0.03489045
195	0x3e2639b9	0.16232957
196	0x3d79f5f7	0.061025586
197	0x3e869d07	0.26291677
198	0x3e248f00	0.16070175
199	0x3e0b6385	0.13612182
200	0x3a507539	0.0007952038
201	0x3e6f3da8	0.23363364
202	0x3e7edd05	0.24889
203	0x3e853c64	0.26022637
204	0x3e58fb1e	0.21189544
205	0x3ddac1a7	0.106814675
206	0x3e2af0bd	0.16693397
207	0x3e82d38e	0.25552028
208	0x3e0a11ce	0.13483354
209	0x3eb20433	0.3476883
210	0x3e45ab09	0.19303526
211	0xbd2bc46c	-0.04193537
212	0x3e959711	0.29216817
213	0x3ea4cc2f	0.3218703
214	0x3e8cd022	0.27502543
215	0x3eb5feca	0.3554595
216	0x3e8c9886	0.27460116
217	0x3e5ee708	0.21767819
218	0xbd12af4c	-0.035811707
219	0x3c057d36	0.008147528
220	0x3e030da5	0.12798174
221	0xbce0b7ef	-0.027431456
222	0x3dc28cea	0.094995335
223	0x3cc5285e	0.0240671
224	0xbb81bddd	-0.003959401
225	0x39d51e63	0.00040649166
226	0x3e0e492b	0.13895099
227	0x3e638354	0.22218066
228	0x3e9326f9	0.2874067
229	0x3da3bc4a	0.07994898
230	0xbbc0e84e	-0.005887068
231	0x3d6e506f	0.058182176
232	0x3e5ddf03	0.21667103
233	0x3df4789b	0.11937066
234	0xbcee4731	-0.029086681
235	0x3e85a527	0.26102564
236	0x3dc5873c	0.096449345
237	0xbdb7691e	-0.089555964
238	0x3ea8b974	0.3295399
239	0x3ca07afe	0.019589897
240	0x3db6566c	0.089032024
241	0xb943ee47	-0.00018685414
242	0xbc0c606e	-0.0085679125
243	0x3e1d4b8d	0.15360852
244	0x3d4f7684	0.050650135
245	0x3bc9c319	0.0061572907
246	0x3e4b78ff	0.19870375
247	0x3e7d3499	0.24727096
248	0x3ecef869	0.40423897
249	0xbca4a4f6	-0.02009819
250	0x3e0d6c15	0.13810761
251	0x3e6163e3	0.2201076
252	0x3d6dffb1	0.058105174
253	0x3dffd339	0.124914594
254	0x3da1b408	0.07895666
255	0x3e183580	0.14864159

model.8.bias f4 [32]
0	0xbe0a2819	-0.13491859
1	0xbd8999b8	-0.06718773
2	0x3e96b6f8	0.2943647
3	0xbd92bb50	-0.07164633
4	0x3e4d1303	0.20026784
5	0x3e1908ad	0.14944716
6	0xbd948ce9	-0.07253439
7	0xbe0c362f	-0.13692544
8	0x3ec19bd6	0.37814206
9	0x3e5c7775	0.21529944
10	0x3ebac773	0.36480293
11	0xbcbc4052	-0.022979889
12	0x3dfcb64b	0.12339457
13	0xbc9d4ce5	-0.019201705
14	0xbd6770ea	-0.056504168
15	0x3ed07db7	0.40720913
16	0x3ee9e79a	0.4568451
17	0x3e6f0d9c	0.23345035
18	0x3eb67630	0.35637045
19	0x3e8c23ed	0.2737116
20	0x3d924c8a	0.07143505
21	0x3eaaa78b	0.3333095
22	0x3e8accdd	0.27109423
23	0x3e323768	0.17403948
24	0x3ecf0bb4	0.40438616
25	0x3ead03c5	0.33791938
26	0xbe2f7156	-0.17133078
27	0x3e886e64	0.2664672
28	0x3ea1be43	0.3159047
29	0x3e661af2	0.22471216
30	0xbdc1dfe4	-0.09466532
31	0xbdcc1ad1	-0.09966052

model.11.weight f4 [1, 32]
0	0xbe81cd92	-0.2535215
1	0xbe59f047	-0.21283065
2	0xbe68aa80	-0.2272129
3	0xbe57d11e	-0.21075866
4	0xbe3fc36b	-0.1872689
5	0xbe7d06b4	-0.24709588
6	0xbe5d6a4c	-0.2162258
7	0xbe0f687e	-0.14004704
8	0x3f00d815	0.50329715
9	0xbe85c3a7	-0.26125833
10	0x3ed33274	0.4124943
11	0xbe57ddd4	-0.21080714
12	0xbe570057	-0.20996223
13	0xbe6d0153	-0.23145036
14	0xbe3f5d1f	-0.18687867
15	0xbe60e316	-0.21961626
16	0xbeb8a0ae	-0.3606009
17	0xbe605e7d	-0.21911044
18	0x3eca9e00	0.3957367
19	0x3eadc195	0.33936754
20	0xbe3857e1	-0.18002273
21	0x3ef2c8dd	0.47418872
22	0x3ed37e3a	0.4130724
23	0x3f060907	0.52357525
24	0x3ea60399	0.3242462
25	0x3e8f524e	0.2799248
26	0x3d8cadb6	0.0686907
27	0xbe643d54	-0.2228902
28	0x3e9c4929	0.30524567
29	0x3eec0b0d	0.4610218
30	0xbe39cb1a	-0.18143883
31	0xbe6ca146	-0.23108396
