Outputs/best_credit_risk_model_v1-20250613-040217.pth (torch, 35885 bytes, 5 tensors)

net.0.weight f4 [64, 91]
000000 57 1e 49 be 11 8c a4 bd 9c 75 a8 bb 81 e6 92 bc
       -0.1964048 -0.08034528 -0.0051409733 -0.017932178
000010 7c b0 fb bc 23 34 f1 ba 87 87 ed bc 87 7c 84 bd
       -0.030723803 -0.0018402379 -0.028995289 -0.06469064
000020 df a7 01 3d 25 5b 01 3b ae 4b 41 3d 9b f7 e5 be
       0.031654235 0.0019738164 0.047191314 -0.4491547
000030 93 b3 1c 3f 23 f7 9d bd a8 06 e9 bc d5 4b d0 bd
       0.6121151 -0.07713153 -0.028445557 -0.10170714
000040 70 19 2d 3c 1a ab 4e 3d 63 3c 14 be 83 e7 19 be
       0.010565147 0.050456144 -0.1447616 -0.15029721
000050 59 cf 7e 3d 36 ff 5f bd b8 9e 17 bd 1b bf 4d 3d
       0.06220946 -0.054686747 -0.0370166 0.05023108
000060 94 fc 4e 3d b8 07 d9 39 40 fa 81 3c 6a 59 95 bc
       0.050533846 0.00041395216 0.015866399 -0.018231113
000070 a4 86 4a bd db 33 38 3b 22 4c 35 bd 4a cb 20 bd
       -0.04944481 0.002810708 -0.04426206 -0.03925637
000080 ce a3 77 3c 5a 86 2f bc 63 3a 6b 3c fe 9b af 3c
       0.015114738 -0.010713184 0.014357182 0.021436688
000090 49 3f 83 3c fe 15 c0 bc 34 7e 2e bd 1c cf 00 3c
       0.016021388 -0.023447987 -0.042600825 0.007861879
0000a0 aa 2f a6 3c 21 64 68 bd 61 f9 3f 3c 8a 16 9f 3d
       0.0202864 -0.056736115 0.011717171 0.07767971
0000b0 0f 74 cf 3c 01 03 a6 3c 82 8f be 3b dc f7 b6 b9
       0.025323896 0.020265104 0.0058154473 -0.00034898415
0000c0 bf 56 1a 3d d3 09 83 3d 1b f2 bc bc 8e 34 03 bc
       0.037680384 0.06398358 -0.023064664 -0.0080081355
0000d0 db bb 56 bc cb 9a 56 3d ec 77 8e bc 70 24 8b 3c
       -0.013106312 0.052393716 -0.017391168 0.016985148
0000e0 48 b2 37 3c 30 ee 55 3d cf c3 87 3c 67 68 06 3d
       0.011211939 0.052229106 0.016572861 0.03281441
0000f0 2e dc 01 3e 8c db 54 3c 4e bf 76 bd 0c c5 9e 3c
       0.12681648 0.012991797 -0.060241036 0.019381069
000100 b5 8d 3b bc 72 eb cc 3c 6f 59 84 bd d0 d4 63 3d
       -0.01144736 0.025014613 -0.064623706 0.055622876
000110 df 26 69 bb fa 32 ae 3c e9 23 42 3d 20 57 21 3d
       -0.0035576147 0.021264542 0.047397528 0.03938973
000120 c5 49 70 ba 8a a2 73 3d ca f1 d3 3c 6b 19 9f 3c
       -0.0009166266 0.05948118 0.02587213 0.0194213
000130 25 4b 08 3d 3a 15 90 3c b2 7e 9e bc bd 3c 8d 3c
       0.03327479 0.017588247 -0.019347522 0.017240876
000140 94 77 7f bc c5 a5 df 3c 01 96 e6 3c ad 40 ad 3c
       -0.0155924745 0.027300725 0.0281477 0.021149004
000150 04 f1 81 3c d2 dd b1 3c 4d c2 b9 bd 26 a4 8d bd
       0.015861996 0.021712217 -0.09070263 -0.069160745
000160 cf 02 60 bd f2 ee e4 3c 31 46 a1 bc 56 48 16 bf
       -0.05469018 0.02794597 -0.01968679 -0.58704126
000170 c9 f2 2b b9 27 e5 ce 3a fe fc 05 3b cf 87 57 3c
       -0.00016398275 0.0015784845 0.0020444985 0.013154938
000180 03 5e 1d ba e2 ed 9d 3c 32 4d 60 3b bc 8b b8 bb
       -0.00060030835 0.01927847 0.00342257 -0.005631892
000190 d8 60 bb 3b 3f 59 55 3b 5b 5b b5 be 57 5c 1d 3f
       0.005718332 0.0032554416 -0.3542126 0.61469024
0001a0 24 84 d7 3a 3f 09 2c 3c 51 be a8 3d 3c 7e b0 3c
       0.0016442579 0.010500251 0.08239425 0.021544568
0001b0 59 18 1d 3d 64 5c 7c 3c 83 4b ac 3b ab 7b d9 bc
       0.038353298 0.015402887 0.005258025 -0.026548227
0001c0 8a d8 fd bb c2 d1 d6 3b 3f 2b b8 bc d5 a9 5e bc
       -0.0077467607 0.006555767 -0.022481559 -0.013590296
0001d0 32 ee 4f 3c 99 6b dc ba b0 c4 89 3c 31 71 b9 39
       0.0126910675 -0.0016816735 0.01681742 0.00035370284
0001e0 28 12 d5 bb d5 6b a4 3c db c5 87 bc e7 a9 72 3c
       -0.0065024085 0.02007095 -0.016573837 0.014811016
0001f0 8c 30 61 bb 6d 3e e7 3b 4d 45 4e bc c1 ef 03 3c
       -0.0034361212 0.0070570023 -0.012589765 0.008052767
000200 6b f0 b3 3c cd b4 ab 3b 55 f5 ba bc be 2d 1f 3d
       0.021965226 0.005240059 -0.022822062 0.038861983
000210 94 65 9a 3c 2f 8f 0b 3d 0c 4b a6 3d 5d b2 89 3c
       0.018847264 0.034072097 0.08119783 0.016808683
000220 7b 88 d7 3c 57 6c c3 3c 78 39 99 3c c0 e4 5a 3d
       0.026310196 0.023855371 0.018704161 0.05344081
000230 1a e9 5b 3c 27 a2 dd 3c 69 0a 3d bc a6 eb 23 3e
       0.013422275 0.02705486 -0.0115381265 0.16007861
000240 54 85 02 3d 62 70 eb b8 e7 6c 9a 3c 42 17 9c 3b
       0.031865433 -0.00011226606 0.018850757 0.0047635147
000250 45 03 bf 3b 8d 7b fd 3c 31 2f ec 3c 21 15 86 3e
       0.005829247 0.030942703 0.028831096 0.26187995
000260 c7 cd 35 3d f8 ae 1a 3d db e7 b4 3b 43 f7 b9 3c
       0.044385698 0.03776452 0.0055208034 0.022700911
000270 fa 6c 19 bb f6 e7 0d 3d 3a 51 0d 3b 8e 82 3d 3d
       -0.0023410902 0.034645043 0.0021563307 0.046267085
000280 06 36 ce 3c 6d a9 29 3d f9 3d e4 3c 43 1e 30 3d
       0.025172245 0.041421343 0.027861582 0.04299761
000290 0c 07 84 3d de d5 54 3d 0f e7 05 3d 68 86 98 3c
       0.064466566 0.051961772 0.032691058 0.018618777
0002a0 ba f0 1f 3d f0 7d 82 3c d1 0c e4 3b 59 bc bf 3c
       0.039047934 0.015929192 0.0069595356 0.02340524
0002b0 a5 a9 c1 bb b8 70 87 3d 02 97 f0 ba 50 95 c1 3b
       -0.005910116 0.06613296 -0.0018355551 0.005907692
0002c0 45 c0 12 ba 51 24 9f 3c 1a 2e 11 3d f2 03 6f 3c
       -0.00055981084 0.019426497 0.035444357 0.014588343
0002d0 61 f9 e3 3c 40 d0 2e 3e 1c 9a f7 bd 91 3e 41 be
       0.027828874 0.17071629 -0.12089941 -0.18871523
0002e0 0d ec 4b 3d 34 f0 c3 bc 27 62 08 3d b2 fe 0a 3c
       0.049785662 -0.023918249 0.03329673 0.008483576
0002f0 b2 ce 1f bc 86 ea ee 3c d0 c0 d2 bc bc e9 97 bd
       -0.00975387 0.029164564 -0.025726706 -0.07417628
000300 88 b8 3e 3d d5 49 bf be e5 b2 16 3f 2f a8 d9 bd
       0.0465627 -0.37361017 0.5886672 -0.106277816
000310 25 df 09 bc 46 8b 6c bd 45 79 bc bb f9 d3 c3 ba
       -0.008415018 -0.05775001 -0.005751761 -0.0014940492
000320 06 4b 26 be 78 ea 48 be a3 45 ae bc 49 28 8f bd
       -0.16239557 -0.19620693 -0.02127344 -0.06990106
000330 e5 e6 a5 3c 79 8f 2d bd d7 ab 84 bc fc fe 82 3d
       0.0202517 -0.042373154 -0.01619522 0.06396291
000340 b0 b9 fb 3c c7 16 a8 bc 3c b4 4e bc 00 67 02 bd
       0.030728191 -0.020518674 -0.012616213 -0.03183651
000350 d4 13 1f 3c fd 68 4d bb f3 d1 89 bc 36 8a e5 3c
       0.009709317 -0.0031343095 -0.016823744 0.028020006
000360 1f 62 8a 3c 6b 1e 9e 3d ff ae 4d 3b eb 48 ba 3a
       0.01689249 0.077206455 0.0031384823 0.0014212405
000370 53 1a 8e 3c 1a 54 cc 3c b3 11 d7 bd 7a ee 97 3c
       0.017346537 0.024942447 -0.10501423 0.018546332
000380 9b 5a be 3c 84 ab c9 3d 31 38 fa 3c 34 74 45 3d
       0.023236563 0.09847167 0.030544372 0.048206523
000390 1e 12 f3 3c 2c 78 51 3d 9a b2 88 3d db e9 3d 3c
       0.029671725 0.051139995 0.066746905 0.0115914
0003a0 72 73 f7 bd 8f 88 d0 3c 25 6d 41 3d f8 9f 57 3d
       -0.12082566 0.025455741 0.04722323 0.052642792
0003b0 c8 67 44 bd 41 44 4a 3d 24 6a bf bc 44 36 a9 3c
       -0.047950536 0.0493815 -0.023366041 0.020655759
0003c0 38 c5 86 3d d1 e0 96 3d 95 76 d6 3d 0d 4c f9 3c
       0.06580585 0.07367099 0.104718365 0.030431772
0003d0 07 ff 20 3d 38 0a 42 3d 1d 2a a8 bd 01 e6 6e 3c
       0.039305713 0.047373027 -0.082111575 0.014581204
0003e0 bc 1d a6 bc 1c d4 93 bd 85 db 07 3d b7 72 6c 3c
       -0.02027785 -0.07218191 0.033168335 0.014431647
0003f0 bd 1d 59 3d 4f e8 5a 3d c9 41 5e 3d ac 8f 3c 3d
       0.053006876 0.053444203 0.054261956 0.046035454

net.0.bias f4 [64]
000000 a4 58 41 3a 6e 98 0e be 6b be 67 bd da a7 47 be
       0.0007375574 -0.13925335 -0.05657808 -0.19497624
000010 37 6a f3 bd 6a e4 70 bc 5b 0e 36 be 4a fc 86 bd
       -0.11885493 -0.014702896 -0.17778914 -0.06591089
000020 4e c0 f9 bd 6a ab e7 bd c5 c4 f0 bd ca 3c db bd
       -0.12194882 -0.113119915 -0.11756281 -0.10704954
000030 1d 01 1a bd 14 ea 27 3c 60 b7 34 be e5 18 27 3d
       -0.037598718 0.01024868 -0.17648077 0.040795226
000040 46 62 d4 3d f1 71 a0 bd 4f a7 25 3e 63 bf b7 bb
       0.10370307 -0.078342326 0.16177104 -0.005607532
000050 d1 db f6 bc 7c 7e 8e bd a5 f9 3b 3d 77 65 2f be
       -0.030134114 -0.06957719 0.045892376 -0.1712855
000060 3e f1 11 be 4c c3 f5 bd 04 eb e8 bd 74 3e 0b be
       -0.14252183 -0.120001405 -0.11372951 -0.13598043
000070 60 da 88 3d 5a e2 02 3e 0f 92 12 be f6 5b a1 3d
       0.06682277 0.12781659 -0.1431353 0.07878868
000080 c1 40 2a bd cf 81 83 3d 33 9f 9a 3d 23 f6 96 3d
       -0.04156566 0.064212434 0.07549896 0.073711656
000090 49 64 79 bd 11 4b 18 be d4 3b af bd c9 ce 10 3c
       -0.060886655 -0.14872386 -0.08556333 0.008838364
0000a0 ab 16 a8 bd 94 a3 b1 bd 1d d3 1e be dd d9 5a 3d
       -0.082074486 -0.08673778 -0.15510221 0.053430427
0000b0 14 ea 90 3a 0a 52 1f be 8d 30 3f bd c4 34 03 be
       0.0011056089 -0.15558639 -0.04667716 -0.12813097
0000c0 64 2f 1b be d1 8c ef bd 1d 85 82 bd 15 cc 10 be
       -0.15154797 -0.116967805 -0.063730456 -0.14140351
0000d0 99 f3 48 bd 72 66 2b 3c 6c 07 c5 3c 25 70 06 be
       -0.049060438 0.010461437 0.02405139 -0.13128717
0000e0 6e 18 24 be 02 25 98 bd f0 b7 0a be 29 a9 01 be
       -0.16024944 -0.07428934 -0.13546729 -0.12662186
0000f0 c6 27 40 3e 24 99 f4 bd 14 31 96 bd 03 98 04 be
       0.18765172 -0.11943272 -0.0733358 -0.12948613

net.3.weight f4 [32, 64]
000000 4e e9 a0 be 4b c8 7e be e1 62 0f be 53 56 e5 be
       -0.31427997 -0.24881093 -0.14002563 -0.44792423
000010 0e d7 88 3d ca 78 0c 3d 5f 63 e6 3d 91 a8 d8 3c
       0.066816434 0.03429488 0.11249422 0.026447566
000020 67 e3 78 bd 35 83 70 be 11 3c e5 be 7d 4a be be
       -0.060763743 -0.23487552 -0.4477239 -0.37166205
000030 a5 47 d1 3d bf 02 4c bc d5 6f 1c be ef 3b 1b bd
       0.10218743 -0.012451827 -0.15277036 -0.037898954
000040 3b 9b 82 bd cc 1e c4 bd 37 e2 a8 3c fc c5 60 3c
       -0.06377264 -0.095761865 0.02061568 0.013719078
000050 63 71 a0 3c 4a 03 4a bd 16 bc 23 3d cc fe 04 bf
       0.019585317 -0.049319543 0.039974295 -0.5195129
000060 7b 35 c4 be 40 1b 71 be 1c 7b bb bd c0 21 90 be
       -0.38322052 -0.23545551 -0.091543406 -0.2815075
000070 3e e1 14 bd de 3b 5f 3d 41 43 2c be 72 d9 eb be
       -0.03634762 0.054500453 -0.1682253 -0.46064335
000080 23 c2 0a 3d 4b 44 39 3d d1 45 29 bd dc 2b 19 3d
       0.03387655 0.045231145 -0.041326348 0.037395343
000090 a8 50 7a 3d 3b bc b8 be 01 a1 9b bb 15 b8 b1 3d
       0.061112076 -0.36081108 -0.004749418 0.08677689
0000a0 88 eb 40 3d 80 65 ef bc 92 8c 8a be b7 d1 a2 3d
       0.04709962 -0.029223204 -0.27060372 0.07950156
0000b0 ac 6e 09 3d b9 eb 8c be 2b 10 0b bd c9 30 86 bd
       0.03355281 -0.27523592 -0.033950966 -0.06552274
0000c0 f4 5e fa be 2d 00 4a 3d e8 13 5a 3d 0e 3c dc bd
       -0.48900568 0.049316574 0.05324164 -0.10753642
0000d0 54 e7 8f 3d 93 6b f6 be 64 92 90 be 79 9f 78 be
       0.07026544 -0.48128948 -0.28236687 -0.24279584
0000e0 2c 22 bd bd e3 67 33 bd 35 d0 08 bf 69 83 1e bd
       -0.092350334 -0.043800246 -0.534427 -0.03869954
0000f0 2a e2 7a bd cb 85 be be 4a d6 9d 3d 7d 41 98 be
       -0.061250843 -0.3721145 0.07706888 -0.29737464
000100 f9 5e 0d be de 7c fc bd b1 87 17 be 2e c8 ad be
       -0.1380576 -0.12328504 -0.14797856 -0.33941787
000110 7d b3 b5 3d e9 21 d5 3d 39 68 86 bb 22 9b 14 bc
       0.08872125 0.104068585 -0.00410178 -0.00907019
000120 00 93 bc 3b b4 5b e3 bd 75 2a 32 be a0 a9 cc be
       0.0057548285 -0.11101475 -0.17399009 -0.39973164
000130 be ff c7 3c ed 22 86 3d 4a aa db be a9 4a c7 bd
       0.02441394 0.0654963 -0.42903358 -0.09731037
000140 b3 3a 17 bd d4 0f 98 bd 89 12 f5 bd 8c d3 43 3d
       -0.036921214 -0.07424894 -0.11966426 0.04780917
000150 21 6a 48 bd 67 7d 68 bd c1 9f 94 3d 83 8b c8 be
       -0.048929337 -0.056760218 0.07257033 -0.3916894
000160 28 4c dc be c8 4f 86 be 09 80 bf be a7 dc 99 be
       -0.43026853 -0.26232743 -0.3740237 -0.30051157
000170 5a 26 e8 3d d7 ee 15 3e 3e 14 02 be 5b 19 96 3d
       0.1133544 0.14641891 -0.12703034 0.07329055
000180 15 3e 02 3c 46 3f a2 3d 2f a1 07 be de 84 ba 3d
       0.007949372 0.07922225 -0.1324508 0.09107374
000190 06 c5 f2 3d 66 d9 cf be a5 b9 18 be 5b 13 a7 bd
       0.118539855 -0.4059555 -0.14914568 -0.08157989
0001a0 e3 ee b0 3d 7a 51 28 be 1f 04 90 be 74 66 66 3d
       0.08639314 -0.16437331 -0.28128144 0.05625005
0001b0 ae 44 7a 3d 8a f6 db be 31 9c cc bd 48 57 63 bc
       0.061100654 -0.42961532 -0.09990729 -0.01387579
0001c0 9e 9c 8b be 79 88 ab 3d a9 f8 08 3c b5 4b 94 bd
       -0.27267927 0.083756395 0.008360066 -0.072410025
0001d0 0b 8c fa 3d 80 d8 0b 3e 31 db 68 3d 62 d1 d8 be
       0.12233742 0.13656807 0.056849662 -0.42347246
0001e0 88 20 fa bd a4 e5 d6 bb a4 84 cb be 54 b8 c6 3d
       -0.12213236 -0.006558137 -0.39749634 0.097031265
0001f0 2d 83 29 3d 75 b1 56 be b6 12 61 bc da de 29 be
       0.041384865 -0.20966132 -0.013737371 -0.16588917
000200 44 9b d6 3d 24 36 88 3e b5 92 9d bd f7 1c ea 3e
       0.10478833 0.26603806 -0.07693998 0.45725223
000210 b7 1a c4 bd da d6 98 3d aa 76 84 bc 24 28 39 3e
       -0.09575408 0.07462855 -0.016169865 0.18081719
000220 e2 54 68 3d 2e 89 98 3e 5e 39 de 3e b5 52 f9 3e
       0.056721576 0.2979216 0.43403143 0.48695913
000230 f5 3e 30 3e b6 62 94 3d e6 f5 ce 3e 11 37 ce be
       0.17211516 0.0724539 0.4042198 -0.40276387
000240 34 ec 78 be 7b 2b 90 3d d5 10 09 bf bb 18 19 3d
       -0.24308854 0.07039543 -0.5354131 0.0373771
000250 02 06 09 bd 10 5f b3 3d 35 ab 89 bc 73 0c 28 3f
       -0.033452995 0.08758366 -0.01680527 0.65643996
000260 04 bd e0 3e 32 e0 cf 3e 12 c1 f6 3e 30 56 9f 3e
       0.43894207 0.40600735 0.48194176 0.31120443
000270 1c 35 85 b9 25 b3 88 3c 07 f0 99 3e 18 58 67 3d
       -0.00025407306 0.016686985 0.3006594 0.056480497
000280 91 14 45 3d 48 18 52 3d 7b d7 2a bf 15 a0 ad be
       0.048115317 0.051292688 -0.6673505 -0.33911195
000290 cb 33 95 be 1e d6 a6 3e 2f e8 81 3e d6 68 a9 be
       -0.29141077 0.32585233 0.25372455 -0.33087796
0002a0 a8 5c 36 3e 3c 1e 4e 3c 51 27 e1 3e 6b 8d 6e 3d
       0.17808783 0.012580451 0.4397531 0.058240335
0002b0 f5 38 52 bd 0e a2 a5 3e ae 81 29 3d d1 9a 94 3e
       -0.05132385 0.323502 0.041383438 0.29024366
0002c0 c0 a6 bb 3e 9c f8 d2 3d ee 10 c0 3c c8 4c e6 bd
       0.36650658 0.10301325 0.023445573 -0.112451136
0002d0 fb 74 35 bd 22 94 ae 3d 75 ab ae 3d 89 96 6b 3e
       -0.044301014 0.08524348 0.085287966 0.23006643
0002e0 c0 7c 09 3e 66 6b 9a 3d b8 a0 05 3f be 56 2a 3e
       0.13426495 0.07540016 0.5219836 0.16634652
0002f0 21 86 7e be fa ed a9 3e 71 e6 23 3e e5 2e 76 3e
       -0.24855854 0.33189374 0.16005875 0.24041326
000300 d1 64 aa 3d 5f f1 8c 3e 89 ae 4d bd f2 20 dd 3e
       0.083200105 0.27527902 -0.050215278 0.43189198
000310 d6 a5 ac bd 2a 19 35 3d c4 81 82 3d 1e af 00 3e
       -0.08430068 0.04421345 0.06372407 0.12566802
000320 38 d9 b7 3a d2 11 67 3e a0 1c a5 3e 19 9e c1 3e
       0.0014026528 0.22565392 0.32248402 0.3781593
000330 9c 93 70 3d 0b 54 87 3d 21 2d 42 3e 43 5d cb be
       0.05873452 0.06607827 0.18962528 -0.3971959
000340 8d 30 8c be 0c 06 72 3d 0a bf 9f be e9 2c 25 3d
       -0.2738079 0.059087798 -0.3120044 0.040326033
000350 2e 29 66 3c ab dc 39 bd 16 46 31 bd cd e5 f5 3e
       0.014047904 -0.04537646 -0.04327973 0.48026887
000360 4c 53 b8 3e f0 98 66 3e 47 0b 9b 3e ae f8 66 3e
       0.3600105 0.22519279 0.3028204 0.22555801
000370 3f 54 5b 3d 5d 80 88 3d 5d 2b 46 3e 79 8d 87 3d
       0.05354714 0.06665108 0.1935248 0.06618781
000380 22 71 73 3d 8c f9 a7 3d 09 6e 18 bf f4 30 92 be
       0.059434064 0.08201894 -0.595429 -0.28552973
000390 8e 1f f4 bd 78 73 c1 3e 4a be d4 3d 85 6d dd be
       -0.11920081 0.37783408 0.10387857 -0.4324762
0003a0 14 51 27 3e e6 4f c9 3d 47 28 d7 3e 0f 4c 40 3d
       0.16339523 0.098296925 0.42022917 0.046947535
0003b0 ba 07 9f bd eb 7e ec 3e 88 31 2b bd a4 f1 87 3e
       -0.077651456 0.4619058 -0.041795284 0.26551545
0003c0 a4 db df 3e e3 52 20 bd be 41 97 3c 23 86 a1 3c
       0.4372226 -0.039141547 0.018463966 0.019717282
0003d0 de 28 1f be ee f8 39 3d cd 0a 5f 3c d5 5d 9b 3e
       -0.15542933 0.045403413 0.013613415 0.30345026
0003e0 71 4a 2c 3d 90 5c b5 bb 01 53 cf 3e d1 0c d4 3d
       0.04206318 -0.005534716 0.40493014 0.10354007
0003f0 d5 45 6d be 4e 0b 8f 3e cf a4 6a 3d 5e ca 91 3e
       -0.2317117 0.27938312 0.05728608 0.28474706

net.3.bias f4 [32]
000000 28 f7 9a 3e c4 3f a3 3e 3c 23 4e be e8 f0 04 be
       0.3026669 0.31884587 -0.20130628 -0.12982523
000010 a2 df 9b 3e 67 56 a8 3e d2 30 73 b9 44 52 61 be
       0.30444056 0.3287842 -0.00023192473 -0.22004038
000020 47 99 85 3e 74 fd d3 3e 50 0e 66 be 1b 3d c5 bd
       0.26093504 0.41404307 -0.22466397 -0.096307956
000030 07 99 8e 3e ba 86 8f 3e 6c 62 7f 3e a6 aa dd 3e
       0.27851126 0.28032476 0.24939889 0.43294257
000040 61 72 37 be 4c ef 5b be 0b c8 75 3e 46 8f 03 be
       -0.17914726 -0.21478003 0.24002092 -0.12847623
000050 fa 2c 48 be 03 2f 9d 3d 51 5b fe bd 11 27 b2 bd
       -0.19548407 0.076749824 -0.12419761 -0.086988576
000060 27 8c 17 bd af 0b 4e 3e b7 8f 3d 3e 31 2d 2b 3e
       -0.036998894 0.20121644 0.18511854 0.16716458
000070 3c 71 3e 3a eb 2a a4 3e 29 46 45 3e a4 c8 56 3e
       0.0007264798 0.32063994 0.19265045 0.20974976

net.6.weight f4 [1, 32]
000000 ae 7f 29 3f ea 5b a7 3e 1e 76 31 bf 64 8a 2b bf
       0.6621045 0.32687312 -0.6932086 -0.6700804
000010 59 0e b4 3e 01 91 ef 3e da 15 e2 be dd fd 13 bf
       0.35167196 0.46790317 -0.44157296 -0.5780924
000020 13 76 cf 3e 05 7c 55 3f f0 bf 1d bf 11 a3 b1 3c
       0.4051977 0.83392364 -0.61621 0.021684201
000030 cf 7b 9b 3e 36 98 ad 3e 42 c7 bb 3e 01 ce ec 3e
       0.30367896 0.3390519 0.3667546 0.46250919
000040 c1 9b 23 bf 07 02 25 bf 02 01 d5 3e 48 44 31 bf
       -0.63909537 -0.6445622 0.4160233 -0.69244814
000050 7a 2b 33 bf 7e 3f aa be f6 42 a6 3c 85 7d 21 bf
       -0.69988215 -0.33251566 0.020295601 -0.6308215
000060 26 49 60 3d 45 9f aa 3e b3 4b e7 3e 5a 78 d7 3e
       0.05475726 0.33324638 0.4517494 0.42084008
000070 55 b5 1f bf 53 f2 c6 3e 6f 67 b0 3e 41 57 c9 3e
       -0.62386066 0.38856754 0.34453914 0.39324382
